EXP_transfer_learning/pretrain_last_checkpoint.pth (torch, 22333 bytes, 12 tensors)

layer_in.weight f4 [32, 4]
-0.50768495 0.42127022 0.3006372 1.091649 -0.32335067 0.17820278 0.14225303 -0.28172147
-0.29497775 0.21511261 -0.17658591 0.20438614 -0.37611687 0.080770686 -0.26721922 0.698752
-0.32997584 -0.66459537 0.4595079 0.008515562 -0.08198584 0.15927237 0.22599322 1.0553651
-0.38823363 -0.73866355 0.14146462 -0.4334731 -0.3005956 -0.528576 -0.4131942 -0.13851798
0.09019461 -0.28084412 -0.15576132 -0.06511048 -0.038502105 0.42961892 -0.12148645 0.09758835
-0.3287481 -0.26549158 -0.086515576 0.028116634 -0.33491296 -0.19524586 -0.3108645 -0.030451577
0.04133066 0.03268886 -0.041480947 -0.15226585 -0.28062 0.3190208 0.34237298 -0.44379145
0.42438093 0.3892375 0.37501183 -0.17887546 0.01563384 -1.1007622 -0.38686222 -0.30005124
0.07875219 -0.02142575 -0.37155762 0.02764464 0.15694392 -0.36130545 0.17937541 -0.15342078
0.434062 0.5106771 -0.17510436 0.22235379 -0.03110748 0.83761626 0.4216467 -0.1433386
-0.060703333 -0.33902675 0.37184703 0.15986551 -0.47836158 0.46801668 -0.26004556 -0.57357144
-0.04781196 0.8064073 0.13028271 -0.019714855 0.3465231 0.05701071 0.10205558 0.48724726
-0.1171915 -0.11153174 0.23403846 -0.20003223 -0.4447012 -0.06481555 -0.4291277 -0.0059412187
0.11464362 -0.20753862 0.3705764 0.13698022 0.3276672 -0.39501554 0.0074368143 0.46776134
-0.059064034 -0.5797135 0.16924939 0.18267857 -0.021802247 -0.35451588 -0.16930506 -0.3082168
-0.15542793 0.24352834 -0.1449129 0.1028094 -0.051396172 0.06619326 -0.103616014 0.22941074
00000000: a4f7 01bf bbb0 d73e 1eed 993e 28bb 8b3f
00000010: 388e a5be ca7a 363e c7aa 113e cc3d 90be
00000020: 5307 97be 7b46 5c3e f0d2 34be 9a4a 513e
00000030: 6492 c0be 1a6b a53d f5d0 88be 69e1 323f
00000040: 98f2 a8be ec22 2abf 9f44 eb3e db84 0b3c
00000050: 31e8 a7bd 4c18 233e c46a 673e 3416 873f
00000060: 8fc6 c6be 0e19 3dbf 1adc 103e 30f0 ddbe
00000070: abe7 99be c250 07bf 318e d3be a8d7 0dbe
00000080: f4b7 b83d cdca 8fbe e57f 1fbe a558 85bd
00000090: 62b4 1dbd 03f7 db3e e3cd f8bd 67dc c73d
000000a0: ac51 a8be 83ee 87be 142f b1bd db54 e63c
000000b0: b679 abbe 88ee 47be a229 9fbe 9675 f9bc
000000c0: 574a 293d c1e4 053d ede7 29bd 94eb 1bbe
000000d0: 6dad 8fbe b256 a33e 834b af3e a238 e3be
000000e0: 7548 d93e 234a c73e 8d01 c03e 212b 37be
000000f0: 8a12 803c c7e5 8cbf ce12 c6be 51a0 99be
00000100: d448 a13d 0e85 afbc cd3c bebe 0377 e23c
00000110: e8b5 203e 07fd b8be 30ae 373e 561a 1dbe
00000120: 603d de3e bcbb 023f 8f4e 33be b6b0 633e
00000130: 1dd5 febc 056e 563f 14e2 d73e 5bc7 12be
00000140: 0fa4 78bd ea94 adbe bc62 be3e c9b3 233e
00000150: cfeb f4be e29f ef3e b124 85be 94d5 12bf
00000160: 79d6 43bd b570 4e3f d568 053e 0c81 a1bc
00000170: 7a6b b13e 1084 693d 8402 d13d 7978 f93e
00000180: 1902 f0bd c16a e4bd c7a7 6f3e 40d5 4cbe
00000190: e0af e3be 04be 84bd a0b6 dbbe 8eae c2bb
000001a0: 46ca ea3d 0185 54be 31bc bd3e 8b44 0c3e
000001b0: ffc3 a73e 7a3f cabe 85b0 f33b 6a7e ef3e
000001c0: 21ed 71bd 1b68 14bf b64f 2d3e 1710 3b3e
000001d0: a09a b2bc 1b83 b5be 4e5e 2dbe 98ce 9dbe
000001e0: 8028 1fbe 7e5f 793e 0c64 14be bc8d d23d
000001f0: cb84 52bd 5590 873d a234 d4bd a6ea 6a3e

layer_in.bias f4 [32]
-0.43595713 -0.56474704 -0.4154906 0.5103775 -0.26374757 -0.40696204 -0.08740012 -0.24259059
0.7109261 -0.31545103 -0.5450257 0.087178476 -0.10999879 0.014688381 0.22260363 -0.43776646
0.6817561 0.09683598 0.45784137 -0.13086921 -0.39941743 -0.27898148 0.4068109 -0.29066476
0.27032745 0.034620795 -0.5410153 -0.48580986 0.2655585 0.3593848 0.20556414 0.017383128
00000000: c635 dfbe 4393 10bf 2fbb d4be 1aa8 023f
00000010: ec09 87be 545d d0be d6fe b2bd ab69 78be
00000020: 41ff 353f cc82 a1be ce86 0bbf a18a b23d
00000030: 0c47 e1bd 89a7 703c 35f2 633e ed22 e0be
00000040: 9187 2e3f f151 c63d 2f6a ea3e 9402 06be
00000050: 7180 ccbe a9d6 8ebe 8549 d03e 03d2 94be
00000060: 5c68 8a3e 89ce 0d3d fb7f 0abf 12bc f8be
00000070: 49f7 873e 4901 b83e 687f 523e 1067 8e3c

layer_out.weight f4 [2, 32]
-0.13833706 0.18417285 -0.32344866 0.25332674 -0.159045 -0.30094698 -0.1277527 -0.29984212
0.27167356 0.2559475 0.115400314 -0.025820123 0.09918674 -0.019102542 -0.17979434 -0.08737836
0.10327962 -0.19697398 0.2210785 -0.026850091 -0.31515837 0.21249972 0.06524543 0.27704427
0.24182026 -0.27849007 -0.14377838 0.2740987 0.13547572 -0.19921274 0.25909564 0.13294551
-0.35599226 0.057674076 0.13865684 0.11241015 -0.097302586 0.22719562 0.23935425 0.016654195
-0.21311729 -0.22350673 0.33691755 -0.06023548 -0.21191955 -0.35627034 0.09116968 0.31408888
0.08148089 -0.33152854 0.26934522 -0.21367222 0.15076655 0.27314383 0.11053351 -0.51215774
-0.14921878 0.060175918 -0.1745502 -0.06617481 0.15101486 -0.17909141 -0.23651083 0.14578949
00000000: 3ba8 0dbe cf97 3c3e 109b a5be 0bb4 813e
00000010: b1dc 22be b915 9abe 9bd1 02be e884 99be
00000020: cc18 8b3e 8d0b 833e 0057 ec3d b984 d3bc
00000030: 6b22 cb3d ef7c 9cbc 021c 38be 6df3 b2bd
00000040: 4484 d33d 8cb3 49be 6762 623e b9f4 dbbc
00000050: 705c a1be 8799 593e 659f 853d bfd8 8d3e
00000060: bb9f 773e 4096 8ebe a43a 13be aa56 8c3e
00000070: 26ba 0a3e 6dfe 4bbe 2fa8 843e de22 083e
00000080: 9e44 b6be a73b 6c3d 0ffc 0d3e 4b37 e63d
00000090: 9446 c7bd f8a5 683e 4819 753e 616e 883c
000000a0: 6b3b 5abe f3de 64be 7580 ac3e 7bb9 76bd
000000b0: 7001 59be 1169 b6be 2bb7 ba3d 42d0 a03e
000000c0: 74df a63d 1cbe a9be 9ee7 893e e4cc 5abe
000000d0: 8c62 1a3e 82d9 8b3e 655f e23d c51c 03bf
000000e0: cfcc 18be 067b 763d 4abd 32be a986 87bd
000000f0: a4a3 1a3e bd63 37be e52f 72be d749 153e

layer_out.bias f4 [2]
-0.026365744 -0.11909767
00000000: f9fc d7bc 7be9 f3bd

middle_layers.0.weight f4 [32, 32]
0.06493947 -0.10504751 -0.086417936 -0.17881781 0.08414411 0.0077567333 0.17615275 0.1670787
0.42767665 -0.19880287 -0.16792566 0.09711906 0.15992032 -0.013166765 0.09853526 0.04314397
0.15701276 0.12846492 0.11142579 0.08935954 -0.07053759 -0.0136680305 0.17591508 -0.114274606
-0.10492982 0.17402022 -0.03126454 -0.32704744 0.11806676 0.28077504 0.15645799 -0.17196427
-0.029974224 -0.026554823 0.19156069 0.19883345 -0.07326142 0.065184385 0.011668354 0.2011675
-0.17586753 0.09273107 0.24505356 -0.0043639266 -0.045182236 -0.13940041 -0.14829972 0.0008969924
-0.03292124 -0.036287915 -0.17704812 -0.10614189 0.048047584 0.17853673 0.105558604 -0.15025446
-0.097435445 0.19192794 -0.04600143 0.05095207 0.064812504 -0.109669775 -0.112550914 -0.12052957
0.12555324 0.08746569 -0.3076563 -0.30095518 -0.046987876 0.021444717 0.11903738 -0.19780856
0.29988167 -0.10730276 -0.26967946 -0.19338591 0.14480796 -0.018548885 -0.11334723 0.04074053
0.0009886277 0.18072034 0.20332809 0.07724208 0.0755442 -0.11851871 -0.11816862 0.019568548
0.0105374595 -0.13107885 -0.031052126 0.01426311 0.044226266 0.03380921 -0.08895887 0.099602684
-0.10174411 -0.14056419 -0.0430545 -0.33244058 0.13077489 0.093247786 -0.0796183 -0.012030579
-0.11456051 0.13234924 0.19619754 0.0026856079 -0.01992686 0.16508019 -0.034059137 0.10736408
-0.107118614 0.14700375 -0.07518022 0.18159409 0.10047303 -0.083702736 -0.03142715 0.103266306
-0.12899221 -0.017258503 0.18608856 -0.049310934 -0.062890574 -0.15562761 0.018081589 -0.25440153
0.029781781 -0.11294615 -0.021699509 0.1952922 0.11520266 0.17464335 -0.06863583 0.24090795
0.046985887 0.096477985 -0.05382598 0.18665951 0.0961721 0.07339569 -0.058463316 0.01529845
0.08415439 0.09721984 0.17428884 0.042614907 -0.06426148 -0.030908907 -0.15040594 0.02488682
0.079856396 0.1409004 -0.18870771 -0.09538893 0.046412256 0.11351966 0.060440317 0.1882834
-0.107841775 -0.22346798 -0.025425192 0.15545629 0.10668769 -0.12359121 0.12842597 0.011347795
0.40391403 0.14189284 -0.27354828 0.08375854 -0.08153875 -0.12193417 -0.18005939 -0.16997062
0.077644125 0.16574718 -0.03890452 -0.14023119 -0.07960916 -0.06421323 0.18696804 0.17714526
-0.0058369394 -0.1491885 -0.17198148 0.031014344 -0.032568227 -0.012164937 -0.082106374 0.122857705
0.011429215 0.16165957 -0.1535759 -0.42559874 -0.044058975 0.02170121 0.07259011 0.021060135
-0.1132349 0.10257233 0.047154617 -0.17649513 -0.054264173 -0.1405525 -0.037007913 -0.11782471
-0.004317132 0.33971503 -0.04083863 0.21326908 0.041157383 0.14473103 0.04640814 0.24013084
-0.03228471 -0.32938755 0.15444493 -0.035555176 0.08628351 0.039591823 -0.18970193 -0.17426108
0.085633665 -0.041492153 -0.1820429 0.24915624 -0.1630114 -0.12516007 0.19379905 -0.026151339
0.247187 -0.022198139 -0.12378841 0.11777657 0.12112335 0.109307505 -0.044853076 0.15835392
-0.02641049 -0.09586322 0.018464305 -0.15071405 -0.16755317 0.20454353 0.1221672 0.022587487
0.11906523 -0.0033699444 -0.19714023 0.004963331 -0.01632546 0.05722158 0.093853734 -0.044070244
00000000: fcfe 843d 2623 d7bd e3fb b0bd 041c 37be
00000010: bf53 ac3d 322c fe3b 6361 343e ae16 2b3e
00000020: 6ff8 da3e fb92 4bbe b4f4 2bbe 5ce6 c63d
00000030: 27c2 233e 6ab9 57bc dbcc c93d bbb7 303d
00000040: f4c7 203e 4f8c 033e 3433 e43d 2202 b73d
00000050: 0376 90bd e0ef 5fbc 1523 343e ce08 eabd
00000060: 72e5 d6bd 5b32 323e 3f0f 00bd c372 a7be
00000070: fccc f13d bfc1 8f3e 8636 203e 6717 30be
00000080: 818c f5bc 8089 d9bc 7c28 443e ff9a 4b3e
00000090: 150a 96bd 647f 853d a02c 3f3c dafe 4d3e
000000a0: 9e16 34be cae9 bd3d 52ef 7a3e 45ff 8ebb
000000b0: 0211 39bd fbbe 0ebe e2db 17be 2424 6b3a
000000c0: 6cd8 06bd a3a2 14bd 1a4c 35be eb60 d9bd
000000d0: 8bcd 443d 55d2 363e 1c2f d83d 4edc 19be
000000e0: 3c8c c7bd c288 443e ff6b 3cbd 1eb3 503d
000000f0: 6bbc 843d 8c9a e0bd 1881 e6bd 35d8 f6bd
00000100: 0791 003e 3621 b33d 2085 9dbe cc16 9abe
00000110: 5c76 40bd d5ac af3c dfc9 f33d 548e 4abe
00000120: 178a 993e 8dc1 dbbd 6d13 8abe f506 46be
00000130: 8a48 143e d5f3 97bc 9822 e8bd 8bdf 263d
00000140: d794 813a c10e 393e 3d35 503e 1831 9e3d
00000150: ebb6 9a3d f0b9 f2bd 6402 f2bd 384e a03c
00000160: 4fa5 2c3c 8939 06be 0761 febc d2af 693c
00000170: 9a26 353d 877b 0a3d 1130 b6bd 7efc cb3d
00000180: 375f d0bd 0ff0 0fbe ea59 30bd a735 aabe
00000190: dae9 053e b2f8 be3d eb0e a3bd e81b 45bc
000001a0: b39e eabd 8f86 073e 02e8 483e 0601 303b
000001b0: a83d a3bc c80a 293e 9881 0bbd b3e1 db3d
000001c0: 0161 dbbd 2788 163e 16f8 99bd cdf3 393e
000001d0: cec4 cd3d 576c abbd c1b9 00bd 497d d33d
000001e0: 8916 04be b461 8dbc 008e 3e3e 43fa 49bd
000001f0: c6cc 80bd d85c 1fbe d71f 943c eb40 82be
00000200: ecf8 f33c 5050 e7bd 2bc3 b1bc aefa 473e
00000210: 5fef eb3d b5d5 323e f190 8cbd 93b0 763e
00000220: 4674 403d 4096 c53d a178 5cbd ac23 3f3e
00000230: e1f5 c43d 7b50 963d 3b77 6fbd 5aa6 7a3c
00000240: 2359 ac3d 321b c73d c678 323e f88c 2e3d
00000250: 869b 83bd ad34 fdbc 0404 1abe 72df cb3c
00000260: c08b a33d 3248 103e 983c 41be 455b c3bd
00000270: c71a 3e3d ff7c e83d 4490 773d 5dcd 403e
00000280: 26dc dcbd cad4 64be 7e48 d0bc ef2f 1f3e
00000290: 137f da3d 631d fdbd 1982 033e 1aec 393c
000002a0: d2cd ce3e 5b4c 113e 850e 8cbe 9989 ab3d
000002b0: cafd a6bd 9fb8 f9bd 7d61 38be c70c 2ebe
000002c0: e203 9f3d a1b9 293e 595a 1fbd c498 0fbe
000002d0: 210a a3bd 3a82 83bd 8d74 3f3e 9165 353e
000002e0: cc43 bfbb dfc4 18be ea1b 30be cb11 fe3c
000002f0: 4366 05bd 724f 47bc 6327 a8bd d29c fb3d
00000300: 9a41 3b3c 168a 253e 0043 1dbe 14e8 d9be
00000310: 2f77 34bd bcc6 b13c 20aa 943d 4e86 ac3c
00000320: b3e7 e7bd 7111 d23d 3325 413d 24bb 34be
00000330: 1c44 5ebd ffec 0fbe 9c95 17bd 154e f1bd
00000340: ba76 8dbb 21ef ad3e 6846 27bd 3663 5a3e
00000350: a594 283d 5f34 143e 7616 3e3d dce4 753e
00000360: f93c 04bd 7ca5 a8be d026 1e3e 4ea2 11bd
00000370: 69b5 b03d 092b 223d 3941 42be 7f71 32be
00000380: b460 af3d adf3 29bd 7469 3abe d022 7f3e
00000390: 76ec 26be f629 00be 4273 463e 553b d6bc
000003a0: 971e 7d3e dfd8 b5bc c784 fdbd d834 f13d
000003b0: 850f f83d 9ddc df3d dcb7 37bd 8827 223e
000003c0: d05a d8bc f053 c4bd 7442 973c c954 1abe
000003d0: 0f93 2bbe dc73 513e cc32 fa3d 6509 b93c
000003e0: 79d8 f33d 49da 5cbb 21df 49be 70a3 a23b
000003f0: f9bc 85bc 2d61 6a3d 6336 c03d 0083 34bd

middle_layers.0.bias f4 [32]
0.01710571 0.01979032 0.13983297 0.056926228 0.0658059 0.05154016 -0.08558714 -0.072237276
0.14700767 -0.025175001 -0.09045089 0.17655014 -0.13352704 0.030066293 0.18750983 -0.1324522
0.057723906 -0.0061403313 -0.17432562 0.036622066 0.08504253 0.06256884 0.03288435 0.031002522
-0.042767726 -0.016305871 0.052725546 -0.06336752 0.11037389 -0.18622547 -0.069617085 -0.12284279
00000000: 4621 8c3c 4f1f a23c 6030 0f3e 7a2b 693d
00000010: 3ec5 863d c61b 533d 4f48 afbd 23f1 93bd
00000020: 2e89 163e ce3b cebc 513e b9bd 8fc9 343e
00000030: 50bb 08be 964d f63c 9402 403e 8da1 07be
00000040: e76f 6c3d d534 c9bb 6a82 32be 0501 163d
00000050: c72a ae3d 1824 803d bdb1 063d 00f9 fd3c
00000060: 362d 2fbd e493 85bc bef6 573d d5c6 81bd
00000070: b50b e23d e4b1 3ebe 6793 8ebd 0095 fbbd

middle_layers.1.weight f4 [32, 32]
-0.072070345 0.04255861 -0.1924282 -0.030215243 0.060163125 0.15955544 -0.10489578 0.019945186
-0.090141036 -0.06487272 -0.122321084 0.037665978 0.015455818 -0.010450928 -0.13167688 0.18000954
0.046589836 -0.10849486 0.05121984 0.10621001 0.18794753 0.015638797 0.012495131 0.0019010694
-0.11472579 -0.17052104 0.0568798 -0.124802545 0.052556496 0.12054172 -0.005984017 -0.07714131
0.043930773 0.16126642 -0.108317405 0.032189883 -0.13488288 -0.0026066287 -0.06322678 -0.14409254
-0.07303866 -0.20472902 -0.112092756 -0.1824153 0.09383466 -0.022327257 0.022761563 0.18856177
-0.06271408 -0.07445485 -0.12569748 0.13280676 0.05846604 0.096439265 0.15981929 0.034362804
-0.13503228 -0.058555488 0.1972734 -0.2688353 0.265657 -0.07622513 0.05942616 -0.024183737
0.12952733 -0.11720777 0.06759533 0.416591 -0.24938226 -0.28469658 0.14868279 -0.3272433
0.02046099 -0.028957084 -0.015456658 0.23223172 -0.0978711 -0.15194653 -0.011983003 -0.07953264
-0.08152421 0.33684534 0.06344607 0.0511374 0.20810929 -0.25570288 -0.14631483 -0.34380928
-0.08512384 0.12226322 -0.058495354 -0.2651813 -0.20549338 0.39565468 -0.34448174 0.08633146
0.030097764 -0.09502679 0.12676984 -0.06119641 0.060865466 -0.07609446 -0.31558827 0.11574216
0.014429154 -0.0043586954 0.073865466 -0.15290874 0.29230112 -0.031714007 -0.19454296 0.086983934
-0.17620029 -0.22515577 -0.12017736 -0.18728784 0.1575981 -0.09783325 -0.19092494 -0.176012
-0.2036291 -0.12119751 0.05001089 0.102337055 -0.033996735 0.19057956 0.10462227 -0.18415321
-0.32498983 0.22669947 0.030951664 -0.14231108 -0.047702853 0.10311215 0.1560795 -0.36584756
-0.16942787 -0.31689078 -0.1500383 0.04806625 0.45376873 -0.15775499 0.031515434 -0.0148218535
0.26307416 -0.33612114 0.09059584 0.19364099 -0.06845958 0.10221767 0.3322163 0.33278185
0.012086141 0.1507984 -0.109106 -0.06602872 0.16227876 -0.03852321 0.066727586 -0.23491839
0.43300438 -0.37295184 -0.05313201 -0.13353555 0.54508847 0.029264122 -0.20476104 -0.12954673
0.059767462 0.14675851 -0.26706535 0.18988672 -0.08610423 -0.061124124 0.36545822 -0.35086703
-0.3108828 0.30533546 -0.2759118 -0.5420314 0.16170172 0.075618826 0.020913627 0.29741633
0.38119456 -0.4304201 -0.20610088 0.4659488 -0.27158952 -0.30223623 -0.26665586 -0.11406136
-0.26227453 -0.20808361 0.25770134 -0.13465632 0.055554766 0.08132649 -0.016769992 -0.06859723
0.40210512 -0.17236269 0.11493218 0.15236671 -0.22482356 0.0645692 0.03450869 -0.15109533
-0.06153254 0.067453764 0.024323795 -0.09921873 -0.18738791 -0.057564743 0.14412612 0.115227
0.0005169112 0.25150114 0.1260321 -0.067519516 -0.12666734 -0.21111147 -0.089714564 -0.12644434
-0.06789342 0.050727464 -0.22124158 0.04979029 0.13165678 0.08380047 -0.1862279 0.1886606
0.02819973 0.20771472 -0.11947654 -0.017389977 0.21211967 -0.064871326 -0.12671593 0.1266461
-0.10232541 0.14185995 0.15523547 0.055757925 0.314858 0.10998512 -0.26759884 -0.006132794
0.08379368 0.11476302 0.053447116 0.100731865 0.06008927 -0.1266375 0.07860018 -0.036135953
00000000: 9e99 93bd f051 2e3d e60b 45be f585 f7bc
00000010: 9c6d 763d 8062 233e 99d3 d6bd 1664 a33c
00000020: dd9b b8bd fddb 84bd 7a83 fabd a447 1a3d
00000030: 663a 7d3c 5e3a 2bbc 4ed6 06be 6c54 383e
00000040: fcd4 3e3d 8e32 debd e5cb 513d a284 d93d
00000050: 5175 403e ef1c 803c 61b8 4c3c 4e2d f93a
00000060: 5bf5 eabd 119d 2ebe cbfa 683d 7a98 ffbd
00000070: 7b45 573d 94de f63d 9315 c4bb 43fc 9dbd
00000080: c1f0 333d 0623 253e 84d5 ddbd 8ad9 033d
00000090: bd1e 0abe f9d3 2abb 0b7d 81bd ff8c 13be
000000a0: 4b95 95bd 7ca4 51be e390 e5bd 14cb 3abe
000000b0: 632c c03d a7e7 b6bc 7576 ba3c 5616 413e
000000c0: 3d70 80bd c97b 98bd d7b6 00be 7ffe 073e
000000d0: 167a 6f3d f381 c53d aba7 233e 03c0 0c3d
000000e0: e745 0abe e1d7 6fbd 0a02 4a3e c8a4 89be
000000f0: 3204 883e ec1b 9cbd d868 733d f91c c6bc
00000100: d0a2 043e a10a f0bd 6c6f 8a3d 6a4b d53e
00000110: 105e 7fbe c0c3 91be 4d40 183e 6f8c a7be
00000120: ce9d a73c 6837 edbc ec3d 7dbc 27ce 6d3e
00000130: a570 c8bd df97 1bbe 5b54 44bc 02e2 a2bd
00000140: 2af6 a6bd fe76 ac3e 03f0 813d 7375 513d
00000150: 9a1a 553e 7deb 82be 8ed3 15be c507 b0be
00000160: 6855 aebd 2465 fa3d d398 6fbd d8c5 87be
00000170: db6c 52be 4093 ca3e e95f b0be 8cce b03d
00000180: 968f f63c 689d c2bd f4cf 013e 16a9 7abd
00000190: 114e 793d 6ad7 9bbd c994 a1be 3a0a ed3d
000001a0: 4268 6c3c 63d3 8ebb c746 973d 1c94 1cbe
000001b0: 7ea8 953e 8ce6 01bd 4536 47be a224 b23d
000001c0: d96d 34be 3c8f 66be 8c1f f6bd 62c8 3fbe
000001d0: 6561 213e cd5c c8bd d481 43be 7d3c 34be
000001e0: 2684 50be 6636 f8bd 38d8 4c3d 1796 d13d
000001f0: 2940 0bbd 4a27 433e 3344 d63d a992 3cbe
00000200: 1165 a6be e823 683e 588e fd3c ffb9 11be
00000210: 1164 43bd 772c d33d 4ed3 1f3e 5f50 bbbe
00000220: 807e 2dbe 823f a2be a4a3 19be 1ee1 443d
00000230: 6054 e83e 868a 21be 5416 013d 5cd7 72bc
00000240: a8b1 863e 1218 acbe 508a b93d d349 463e
00000250: 8934 8cbd 7f57 d13d 4118 aa3e 6262 aa3e
00000260: f304 463c e56a 1a3e f772 dfbd 113a 87bd
00000270: 672c 263e 83ca 1dbd 79a8 883d 728e 70be
00000280: c0b2 dd3e 8bf3 bebe f3a0 59bd 8bbd 08be
00000290: eb8a 0b3f 50bb ef3c e1ac 51be e6a7 04be
000002a0: bace 743d dd47 163e cabc 88be aa71 423e
000002b0: 6a57 b0bd 4a5d 7abd 571d bb3e d8a4 b3be
000002c0: 082c 9fbe ee54 9c3e 5044 8dbe 92c2 0abf
000002d0: 2395 253e 0bde 9a3d 0e53 ab3c f446 983e
000002e0: ef2b c33e 0660 dcbe 1c0c 53be d790 ee3e
000002f0: c80d 8bbe b5be 9abe 1e87 88be 0199 e9bd
00000300: d948 86be df13 55be 6ef1 833e 59e3 09be
00000310: 658d 633d 818e a63d 3961 89bc b47c 8cbd
00000320: b9e0 cd3e d87f 30be 9061 eb3d 0506 1c3e
00000330: 2638 66be db3c 843d fc58 0d3d bcb8 1abe
00000340: 8b09 7cbd 3325 8a3d b242 c73c 3133 cbbd
00000350: 9ee2 3fbe 02c9 6bbd cc95 133e 22fc eb3d
00000360: 5381 073a c2c4 803e 8f0e 013e ac47 8abd
00000370: 15b5 01be 9b2d 58be 45bc b7bd a07a 01be
00000380: b50b 8bbd 9ac7 4f3d 278d 62be e7f0 4b3d
00000390: 09d1 063e 959f ab3d 87b2 3ebe 3f30 413e
000003a0: 1f03 e73c 2bb3 543e 1eb0 f4bd 6d75 8ebc
000003b0: e635 593e 42db 84bd d2c1 01be 84af 013e
000003c0: fc8f d1bd bc43 113e 0cf6 1e3e 6c62 643d
000003d0: 1135 a13e e13f e13d b702 89be 9bf5 c8bb
000003e0: 059c ab3d e008 eb3d 5deb 5a3d 824c ce3d
000003f0: 2b20 763d 43ad 01be 22f9 a03d 4b03 14bd

middle_layers.1.bias f4 [32]
0.011866673 0.07041465 0.15509358 0.10212193 -0.1106409 0.10068129 -0.008941802 0.17606422
0.1633511 -0.06347587 -0.049110457 -0.08083138 0.12068261 0.03981268 0.21729997 0.04407486
-0.029770875 -0.0378457 0.00013573392 -0.09116469 0.023290735 -0.14091508 0.05455964 -0.15936372
-0.057561792 0.035738878 0.06630468 -0.19217071 -0.023255866 -0.039454848 -0.10437126 -0.00665369
00000000: 6f6c 423c 8e35 903d dad0 1e3e 4d25 d13d
00000010: b297 e2bd fe31 ce3d a380 12bc 2e4a 343e
00000020: 8345 273e a3ff 81bd 0c28 49bd ec8a a5bd
00000030: 7228 f73d 9f12 233d e283 5e3e d787 343d
00000040: 0de2 f3bc 1804 1bbd cc53 0e39 8eb4 babd
00000050: 36cc be3c 0b4c 10be ee79 5f3d 3e30 23be
00000060: eac5 6bbd ee62 123d c0ca 873d 66c8 44be
00000070: 1683 bebc 689b 21bd 99c0 d5bd 3207 dabb

middle_layers.2.weight f4 [32, 32]
-0.055525668 0.14431743 0.19611602 0.09201996 -0.14485432 -0.047853183 -0.12646599 0.04449586
-0.1552999 0.21350871 0.10608148 -0.041927256 0.09820919 0.16859311 0.1467071 0.09298637
0.15262797 0.077766255 0.041540153 -0.0710055 -0.12179359 -0.061767243 -0.16053486 0.06671668
0.10119208 0.14565177 0.2867581 -0.18960308 0.082359575 -0.1284516 -0.06294844 0.111796305
-0.15987408 -0.12928616 -0.19305705 -0.12030469 0.15334697 0.2331309 -0.00328107 -0.007915584
0.09924641 0.05393572 0.26215342 0.073415376 0.028876582 -0.08402962 -0.21055254 -0.02261827
-0.045264795 0.12356989 0.09686002 0.03357439 0.07015106 0.16268162 0.05920502 -0.16879167
0.012878552 -0.12282066 -0.07350204 -0.074666545 -0.0975823 -0.13101432 -0.032133758 0.003857867
-0.14984274 -0.16523051 0.064645045 0.063722365 0.020332858 -0.1281325 0.16135913 0.092690356
0.14033386 0.123347335 0.08327379 -0.0558406 0.037342094 0.02456532 -0.03035934 -0.06299638
-0.08044333 -0.15817817 -0.041704778 0.09041868 0.05996713 -0.076131314 0.124162495 0.19634503
0.14953998 -0.06893551 -0.39753184 0.038513493 -0.018668918 0.09308532 0.17509088 0.07867537
0.14269915 -0.1590767 0.305803 0.0629452 -0.20037794 -0.3357125 -0.079402566 0.30517277
-0.21286313 0.04256791 -0.14012367 0.21313839 -0.14098194 -0.057250325 0.34463257 0.35372075
0.24491157 0.36839157 -0.009068434 -0.011661212 0.00771051 -0.014743257 0.21073037 -0.16995299
-0.0614319 0.13841732 0.051590405 -0.06996399 -0.15356451 0.008626905 0.064853355 -0.13085291
0.021628344 0.004128241 -0.118103206 0.03351858 -0.11842082 0.39297983 -0.25052842 -0.20243312
0.03655315 0.0517916 -0.12658705 -0.20978251 0.12970862 0.031481404 0.06561077 -0.2309835
-0.23698823 0.019425936 -0.09952225 0.08554317 0.0060660467 0.17358282 0.04066989 -0.08692522
0.04594201 -0.053423423 -0.06159313 0.10740741 0.1230441 -0.22056508 -0.13621576 0.23322
-0.11998349 0.1590343 -0.10383399 0.18147941 -0.113566786 0.26972488 -0.0770526 0.04758596
0.10589914 0.14858605 0.050887235 -0.19596083 -0.080109105 0.09788821 -0.21143514 -0.2625884
0.012161165 -0.09499372 0.094831415 -0.13148227 0.07706885 0.13869087 -0.11769867 0.13180256
0.121822104 0.12087097 0.057274513 0.13244645 0.040485412 -0.23063986 -0.13565792 -0.13975403
-0.11038711 -0.0018483354 0.24701053 -0.029440807 -0.06560137 -0.33318081 0.10947627 0.2211508
-0.05820036 -0.020118194 -0.051094677 0.03396741 -0.061118577 -0.023486877 -0.03456358 0.099760234
0.10252389 0.14199227 -0.023285093 -0.025093623 0.039117645 -0.15121059 0.12548974 -0.15885466
-0.11889865 -0.07243898 0.042175002 0.028281396 -0.11427911 0.05901596 0.10443345 0.09066778
0.05467621 -0.0529394 -0.1470146 -0.22677946 0.25195006 0.18461165 0.1667763 0.00834524
0.21330345 -0.21854988 -0.053324353 0.200359 0.16701208 -0.18759337 -0.07542212 0.041355237
0.021929564 0.07568902 -0.047808126 0.2455979 -0.0017582369 -0.1757593 -0.16432013 -0.1276029
0.0777126 -0.17571604 -0.24628323 0.20935409 -0.036137108 0.15569891 0.03450969 -0.018882833
00000000: e26e 63bd f3c7 133e a3d2 483e f674 bc3d
00000010: b154 14be b301 44bd 4d80 01be 4a41 363d
00000020: f006 1fbe 07a2 5a3e 3f41 d93d eabb 2bbd
00000030: e621 c93d aca3 2c3e 633a 163e a36f be3d
00000040: 824a 1c3e ea43 9f3d 0226 2a3d 556b 91bd
00000050: eb6e f9bd a6ff 7cbd 4063 24be c1a2 883d
00000060: cb3d cf3d bd25 153e f5d1 923e 4f27 42be
00000070: 23ac a83d d188 03be 1deb 80bd 76f5 e43d
00000080: 08b6 23be 9763 04be bfb0 45be 4e62 f6bd
00000090: fd06 1d3e deb9 6e3e 3807 57bb 5eb0 01bc
000000a0: b441 cb3d b4eb 5c3d f938 863e cd5a 963d
000000b0: 958e ec3c b917 acbd 169b 57be f349 b9bc
000000c0: 9467 39bd 3612 fd3d 8c5e c63d 4d85 093d
000000d0: 5cab 8f3d 0396 263e f780 723d b9d7 2cbe
000000e0: 9000 533c 6689 fbbd 3d88 96bd c6ea 98bd
000000f0: 3bd9 c7bd 9e28 06be b09e 03bd 45d4 7c3b
00000100: 6070 19be 3032 29be 9f64 843d df80 823d
00000110: 1891 a63c 2b35 03be 543b 253e 71d4 bd3d
00000120: aeb3 0f3e 879d fc3d 738b aa3d 1db9 64bd
00000130: 06f4 183d 363d c93c 27b4 f8bc 3f04 81bd
00000140: 79bf a4bd 75f9 21be a1d2 2abd 6e2d b93d
00000150: 18a0 753d bcea 9bbd e848 fe3d ac0e 493e
00000160: 0221 193e 102e 8dbd 4b89 cbbe 53c0 1d3d
00000170: 8fef 98bc 84a3 be3d 064b 333e 8d20 a13d
00000180: ba1f 123e 01e5 22be 3692 9c3e 6ae9 803d
00000190: e02f 4dbe 82e2 abbe d09d a2bd 9b3f 9c3e
000001a0: cbf8 59be b05b 2e3d 947c 0fbe f340 5a3e
000001b0: 925d 10be 517f 6abd ae73 b03e e31a b53e
000001c0: 19ca 7a3e d29d bc3e c593 14bc ab0e 3fbc
000001d0: 72a8 fc3b b48d 71bc b4c9 573e 2808 2ebe
000001e0: 04a0 7bbd 45bd 0d3e 7650 533d 4849 8fbd
000001f0: 0440 1dbe dd57 0d3c d6d1 843d 4efe 05be
00000200: ed2d b13c 3246 873b 18e0 f1bd c74a 093d
00000210: 9d86 f2bd a734 c93e 4345 80be a14a 4fbe
00000220: c1b8 153d 6e23 543d 09a0 01be 3ad1 56be
00000230: 56d2 043e a5f2 003d f05e 863d f086 6cbe
00000240: 0bad 72be 2423 9f3c 52d2 cbbd 4231 af3d
00000250: b0c5 c63b b2bf 313e 7895 263d da05 b2bd
00000260: b02d 3c3d 85d2 5abd 1449 7cbd 6bf8 db3d
00000270: 8cfe fb3d d0db 61be 257c 0bbe 39d1 6e3e
00000280: e7b9 f5bd e3d9 223e eaa6 d4bd bdd5 393e
00000290: b495 e8bd 6119 8a3e c1cd 9dbd 7fe9 423d
000002a0: a6e1 d83d f126 183e 226f 503d f5a9 48be
000002b0: 3e10 a4bd 9d79 c83d 7482 58be fd71 86be
000002c0: 9f3f 473c 118c c2bd f936 c23d 4aa3 06be
000002d0: 46d6 9d3d fb04 0e3e 000c f1bd 40f7 063e
000002e0: de7d f93d 338b f73d ae98 6a3d 0ba0 073e
000002f0: 08d4 253d db2c 6cbe e9e9 0abe ae1b 0fbe
00000300: a312 e2bd d843 f2ba 54f0 7c3e d92d f1bc
00000310: 035a 86bd ad96 aabe 1835 e03d 5b75 623e
00000320: 8063 6ebd e9ce a4bc a748 51bd 6921 0b3d
00000330: 7957 7abd 8d67 c0bc 8a92 0dbd 184f cc3d
00000340: 0cf8 d13d 6c66 113e 61c0 bebc 2491 cdbc
00000350: d339 203d f3d6 1abe 6280 003e ccaa 22be
00000360: 2381 f3bd e35a 94bd b2bf 2c3d 63ae e73c
00000370: 2b0b eabd b8ba 713d 34e1 d53d 07b0 b93d
00000380: 29f4 5f3d fcd6 58bd ff8a 16be e038 68be
00000390: 99ff 803e d60a 3d3e 68c7 2a3e 79ba 083c
000003a0: 386c 5a3e 8acb 5fbe a36a 5abd e92a 4d3e
000003b0: 3705 2b3e 7a18 40be ea76 9abd 1c64 293d
000003c0: a1a5 b33c d802 9b3d 74d2 43bd 047e 7b3e
000003d0: a474 e6ba 3ffa 33be 8943 28be 56aa 02be
000003e0: c927 9f3d e8ee 33be ac31 7cbe eb60 563e
000003f0: 8104 14bd 896f 1f3e 085a 0d3d 2cb0 9abc

middle_layers.2.bias f4 [32]
0.17136665 -0.14034228 -0.020861467 0.023662824 -0.13149399 0.15880877 0.18097599 0.07214967
0.044392146 0.07299685 -0.025859198 -0.0700401 -0.04526377 0.0754398 -0.16120258 0.13979496
0.12549874 -0.020567697 0.15500057 0.18859626 -0.06209703 -0.048158377 0.24504784 -0.12264941
0.13975424 -0.19148682 0.24432959 -0.060416777 -0.14909068 0.14742626 -0.100316405 0.07067184
00000000: bd7a 2f3e e3b5 0fbe abe5 aabc 8ad8 c13c
00000010: 5ca6 06be c49e 223e c551 393e 35c3 933d
00000020: 8ad4 353d 5f7f 953d abd6 d3bc 2f71 8fbd
00000030: 8166 39bd 2f80 9a3d 4a12 25be 6926 0f3e
00000040: be82 003e 967d a8bc 78b8 1e3e 611f 413e
00000050: 7559 7ebd b841 45bd d2ed 7a3e 9d2f fbbd
00000060: bc1b 0f3e 1f15 44be 8931 7a3e 9577 77bd
00000070: 3aab 18be e9f6 163e b072 cdbd 66bc 903d

middle_layers.3.weight f4 [32, 32]
-0.001047728 0.07086794 -0.18319128 -0.033338897 0.14530423 0.007197129 -0.090339676 0.012867676
0.2217042 0.029839616 0.058025837 0.04443318 0.1633779 -0.050054662 -0.06435725 -0.10980178
-0.042177062 -0.08091993 0.24863203 0.07666154 0.11998247 0.17727736 0.027326405 0.074434
-0.07624853 0.11949552 -0.10347274 0.002775394 -0.04574277 -0.117952116 -0.14779285 0.15995757
0.054137148 0.015526079 -0.07784265 0.11145833 0.05183991 -0.20397526 -0.11705513 0.15457092
0.027691254 0.060356 0.09789554 0.16389248 -0.4301249 -0.07169465 0.00015519201 0.05187401
-0.102311544 -0.08393325 0.15757652 0.13119586 0.14067146 -0.007415116 -0.035049293 -0.025486663
0.25174424 -0.05301928 0.093399055 -0.022722933 -0.21951653 0.22644113 -0.1370331 -0.22461173
-0.07509304 -0.1793469 -0.040500708 0.5688279 -0.2466952 -0.20559512 0.1799522 -0.0849248
-0.10394643 0.09313441 -0.14210793 -0.18698536 0.3574449 0.47038725 0.3005645 0.15599239
0.14220443 -0.049528103 -0.002663103 -0.25271973 -0.2691418 0.065182745 -0.062291194 -0.04421871
-0.057981096 0.09193372 -0.024005584 -0.28927457 0.22091487 -0.23038435 0.28915673 0.20771754
-0.13293864 0.09632756 0.09495435 0.045662653 -0.123775244 -0.2026729 -0.10410406 0.19493003
-0.011456288 -0.05126943 -0.18872374 0.18890819 -0.10103679 -0.09225533 -0.18697311 0.07595332
0.050737195 -0.17836799 -0.14658923 -0.06357249 -0.0035647748 0.006298149 -0.08641159 -0.07420141
0.00090609497 -0.06858301 0.15213297 -0.08789251 -0.025356159 0.15798612 -0.030365402 -0.24200784
0.123367235 -0.002319499 -0.24129356 0.18675132 -0.0066214288 0.15931903 -0.12805232 -0.021552587
0.068472825 0.029585904 -0.0370728 -0.02255438 0.067989685 0.15058462 0.1858619 0.048767768
0.14593334 -0.16618253 0.2290576 -0.15909941 0.18618912 0.15719703 -0.14910993 -0.08491168
-0.11442282 0.0021737868 -0.08570458 0.010901488 -0.07108012 -0.13817464 -0.01052397 0.054603264
-0.17144015 -0.086303376 -0.16341005 0.54699117 -0.19915551 -0.10557915 0.14591037 0.070544645
-0.15224758 -0.024495777 -0.26519805 -0.034126513 0.24838734 0.17430848 0.13742097 -0.0651516
0.111986585 -0.10693335 0.034168564 -0.16903213 -0.17821161 -0.030788397 0.2556527 -0.09065974
-0.17203388 -0.03436322 0.038658697 0.08380701 0.036335304 0.16083893 0.26885527 0.14730464
0.23710199 -0.20207581 -0.07585319 0.25467458 -0.17684907 -0.20313184 0.14638464 0.054151304
-0.16740198 0.02292641 -0.33706746 -0.010482646 0.1808129 0.02749492 0.16346863 0.061520286
0.10675556 0.07037217 -0.2655997 0.12460149 -0.41996443 0.06799071 0.006199918 -0.19511274
-0.093401544 0.12891728 0.10550925 0.19311789 0.054626506 0.061215874 0.057799436 0.032132607
0.004830442 -0.13887848 0.06884618 0.006147672 -0.09270294 0.13205977 0.046723206 -0.20011519
0.06011646 -0.023476038 -0.020435952 -0.19474716 0.14538565 0.08206551 -0.06691876 0.1506171
-0.10810749 -0.12584646 0.13873588 0.06383033 0.04265217 -0.010044842 -0.07354834 -0.1630469
-0.05692043 -0.07052488 -0.09754059 0.21396041 0.1347935 -0.24313962 0.2141896 0.3695794
00000000: eb53 89ba 3623 913d 7f96 3bbe 5e8e 08bd
00000010: a2ca 143e e5d5 eb3b 0204 b9bd f2d2 523c
00000020: 6d06 633e 3672 f43c 80ac 6d3d 91ff 353d
00000030: 894c 273e 1e06 4dbd bccd 83bd c1df e0bd
00000040: dbc1 2cbd 59b9 a5bd 6599 7e3e ba00 9d3d
00000050: 5fb9 f53d 3288 353e a0db df3c da70 983d
00000060: 3028 9cbd 11ba f43d 84e9 d3bd 62e3 353b
00000070: c55c 3bbd e190 f1bd 0257 17be ebcb 233e
00000080: eabe 5d3d 1861 7e3c f86b 9fbd 4444 e43d
00000090: 1656 543d e4de 50be 9aba efbd d747 1e3e
000000a0: c5d8 e23c da37 773d 757d c83d 6ed3 273e
000000b0: 5539 dcbe a5d4 92bd 0abb 2239 d879 543d
000000c0: b788 d1bd 32e5 abbd bd5b 213e 3558 063e
000000d0: 2e0c 103e 80fa f2bb d98f 0fbd 68c9 d0bc
000000e0: 9fe4 803e bf2a 59bd 0148 bf3d 7225 babc
000000f0: f1c8 60be 2fe0 673e 6852 0cbe 9e00 66be
00000100: 61ca 99bd b7a6 37be 12e4 25bd b59e 113f
00000110: ab9d 7cbe 8787 52be 6445 383e 0eed adbd
00000120: dee1 d4bd 41bd be3d be84 11be 1779 3fbe
00000130: 0503 b73e 99d6 f03e 97e3 993e 78bc 1f3e
00000140: 0a9e 113e fbdd 4abd 7487 2ebb 7b64 81be
00000150: f4cc 89be 887e 853d 0d25 7fbd ae1e 35bd
00000160: 967d 6dbd bf47 bc3d 5ca7 c4bc cc1b 94be
00000170: 8237 623e e0e9 6bbe 5a0c 943e e8b3 543e
00000180: 1121 08be 6247 c53d 6d77 c23d c308 3b3d
00000190: e07d fdbd 7c89 4fbe 8234 d5bd bd9b 473e
000001a0: 28b3 3bbc e5ff 51bd cc40 41be 2671 413e
000001b0: 60ec cebd 5df0 bcbd e175 3fbe 6a8d 9b3d
000001c0: ced1 4f3d 19a6 36be 7d1b 16be 4b32 82bd
000001d0: ff9e 69bb b460 ce3b 8ff8 b0bd e9f6 97bd
000001e0: 0187 6d3a 4075 8cbd bfc8 1b3e fd00 b4bd
000001f0: b8b7 cfbc 1dc7 213e ddc0 f8bc e7d0 77be
00000200: f6a7 fc3d bc02 18bb a915 77be bd3b 3f3e
00000210: 92f8 d8bb 8724 233e 2620 03be 0d8f b0bc
00000220: 7b3b 8c3d 235e f23c a6d9 17bd f7c3 b8bc
00000230: 2d3e 8b3d db32 1a3e 9552 3e3e b6c0 473d
00000240: 8d6f 153e c12b 2abe 138e 6a3e f5ea 22be
00000250: 5ca8 3e3e 42f8 203e 46b0 18be 2de6 adbd
00000260: 8356 eabd 1776 0e3b e285 afbd 289c 323c
00000270: 7492 91bd a77d 0dbe bb6c 2cbc aca7 5f3d
00000280: 028e 2fbe d3bf b0bd f754 27be 9d07 0c3f
00000290: 6cef 4bbe e239 d8bd 8769 153e b679 903d
000002a0: cae6 1bbe 5eab c8bc 0ac8 87be 3ec8 0bbd
000002b0: 4059 7e3e ec7d 323e 15b8 0c3e 346e 85bd
000002c0: 3959 e53d dfff dabd 56f4 0b3d c216 2dbe
000002d0: 1b7d 36be f337 fcbc e9e4 823e d0ab b9bd
000002e0: a629 30be 73c0 0cbd 9558 1e3d 02a3 ab3d
000002f0: 54d4 143d f6b2 243e 66a7 893e 07d7 163e
00000300: ddca 723e f6ec 4ebe eb58 9bbd b564 823e
00000310: ec17 35be cb01 50be dbe5 153e c2cd 5d3d
00000320: 6d6b 2bbe 2bd0 bb3c 1b94 acbe 67bf 2bbc
00000330: 0427 393e 073d e13c 5264 273e b2fc 7b3d
00000340: a9a2 da3d 491f 903d affc 87be 112f ff3d
00000350: 9405 d7be b73e 8b3d af28 cb3b a2cb 47be
00000360: 4f49 bfbd e402 043e 3c15 d83d b2c0 453e
00000370: 0bc0 5f3d 7fbd 7a3d 1abf 6c3d 7b9d 033d
00000380: af48 9e3b 2936 0ebe 3aff 8c3d 6972 c93b
00000390: 0adb bdbd ad3a 073e d560 3f3d ffea 4cbe
000003a0: ad3c 763d d250 c0bc 4c69 a7bc cd6b 47be
000003b0: fadf 143e f611 a83d b40c 89bd 5e3b 1a3e
000003c0: 7667 ddbd e5dd 00be c710 0e3e 7ab9 823d
000003d0: 0bb4 2e3d 1f93 24bc 83a0 96bd c4f5 26be
000003e0: 6625 69bd 596f 90bd 5cc3 c7bd 7018 5b3e
000003f0: 4f07 0a3e 98f9 78be 8554 5b3e 8339 bd3e

middle_layers.3.bias f4 [32]
-0.1175075 0.21806209 -0.15550436 0.1516624 0.0667263 -0.09946006 -0.14066237 -0.011883507
0.026588833 -0.05511278 -0.11430957 0.09698373 0.070760176 -0.17634891 -0.082306504 -0.0404207
0.010995702 0.050462518 -0.18608332 -0.2073309 0.1076842 0.13639809 -0.020759303 -0.114401735
0.11906872 0.08383474 -0.040519714 0.04193516 0.10170969 0.093945175 -0.15840742 0.09007627
00000000: c6a7 f0bd ab4b 5f3e 893c 1fbe 634d 1b3e
00000010: cca7 883d b7b1 cbbd cc09 10be 0ab3 42bc
00000020: d3d0 d93c f0bd 61bd 231b eabd 689f c63d
00000030: b6ea 903d cf94 34be 5090 a8bd 2d90 25bd
00000040: 5127 343c c9b1 4e3d a08c 3ebe 8d4e 54be
00000050: 8989 dc3d f1ab 0b3e 6a0f aabc 754b eabd
00000060: 4dda f33d 8cb1 ab3d 00f8 25bd 34c4 2b3d
00000070: 2c4d d03d 5466 c03d 8e35 22be e879 b83d
