EXP_transfer_learning/retrain_final.pth (torch, 22104 bytes, 12 tensors)

layer_in.weight f4 [32, 4]
-0.5516603 0.37902454 0.37434444 1.4147967 -0.29983404 0.17739463 0.10875273 -0.321217
-0.30606997 0.22639698 -0.1788024 0.21413103 -0.37651926 0.069041364 -0.2779767 0.7437092
-0.31460097 -0.73225284 0.46177742 0.06124948 -0.07152703 0.13754952 0.23568961 1.0864967
-0.35035726 -0.82782805 0.118098296 -0.49982116 -0.318015 -0.58529747 -0.40869078 -0.15224274
0.094196185 -0.28234175 -0.16100688 -0.057375718 -0.07885147 0.44219768 -0.08230335 0.12090961
-0.33693737 -0.24304569 -0.08966798 0.021045823 -0.33216622 -0.19310327 -0.3277599 -0.053968307
-0.0075848345 0.120188914 0.007955647 -0.08133346 -0.28837904 0.32413155 0.347313 -0.53352076
0.44644582 0.37128523 0.36225107 -0.17617889 0.049027897 -1.2032489 -0.40601146 -0.25560075
0.04817675 -0.022837317 -0.35368603 0.04722793 0.16185637 -0.36663973 0.18809395 -0.16138795
0.4182613 0.55588555 -0.16364771 0.25768286 -0.017832862 0.86452603 0.4159062 -0.20094554
-0.042236254 -0.39496988 0.36585602 0.14701286 -0.47518432 0.41413087 -0.27744845 -0.5665581
-0.030784784 0.81621534 0.12526354 0.02697932 0.34442163 0.051386725 0.11594994 0.5359741
-0.039855666 -0.28408155 0.16000134 -0.190573 -0.44874245 -0.054555725 -0.43956205 -0.021130178
0.12262946 -0.24126372 0.37504986 0.14069031 0.33471248 -0.4576306 0.0150523735 0.5145825
-0.043429278 -0.61862016 0.16658714 0.15415424 -0.03786115 -0.362604 -0.16526258 -0.3227053
-0.13892837 0.2211282 -0.17576844 0.08349534 -0.047078896 0.075552195 -0.09970618 0.2371524
00000000: 9c39 0dbf 810f c23e 13aa bf3e 0f18 b53f
00000010: d983 99be f0a6 353e c0b9 de3d 8e76 a4be
00000020: 34b5 9cbe 9cd4 673e fa17 37be 2a45 5b3e
00000030: 22c7 c0be 8f65 8d3d f652 8ebe ba63 3e3f
00000040: 6113 a1be ec74 3bbf 176e ec3e bce0 7a3d
00000050: c37c 92bd c8d9 0c3e 9e58 713e 5312 8b3f
00000060: 0762 b3be 8aec 53bf 85dd f13d 8fe8 ffbe
00000070: ddd2 a2be 0ed6 15bf eb3f d1be 85e5 1bbe
00000080: eee9 c03d 198f 90be fdde 24be cd02 6bbd
00000090: e17c a1bd bc67 e23e a98e a8bd 759f f73d
000000a0: 0e83 acbe f8e0 78be d9a3 b7bd 4a68 ac3c
000000b0: b111 aabe ddbc 45be 25d0 a7be df0d 5dbd
000000c0: 348a f8bb 9b25 f63d 6758 023c 2892 a6bd
000000d0: 6ba6 93be 92f4 a53e 02d3 b13e d194 08bf
000000e0: 8c94 e43e 1919 be3e f978 b93e 3d68 34be
000000f0: 7ad1 483d 0f04 9abf bce0 cfbe 1ade 82be
00000100: fc54 453d 5315 bbbc 5616 b5be 1372 413d
00000110: adbd 253e 34b8 bbbe b39b 403e e242 25be
00000120: 5826 d63e 844e 0e3f 4493 27be 02ef 833e
00000130: 3916 92bc 9451 5d3f a8f1 d43e abc4 4dbe
00000140: ecff 2cbd 7e39 cabe 7b51 bb3e 8a8a 163e
00000150: 5c4b f3be f608 d43e b90d 8ebe f409 11bf
00000160: 5f30 fcbc 7df3 503f 1645 003e bc03 dd3c
00000170: 0858 b03e e37a 523d 2a77 ed3d 9935 093f
00000180: b23f 23bd 2373 91be 64d7 233e 9225 43be
00000190: 92c1 e5be d375 5fbd 470e e1be 3219 adbc
000001a0: 2825 fb3d d60d 77be 8906 c03e 1f11 103e
000001b0: 6f5f ab3e 8f4e eabe 3b9e 763c aebb 033f
000001c0: e6e2 31bd e45d 1ebf d295 2a3e 9cda 1d3e
000001d0: 4b14 1bbd 3ba7 b9be 983a 29be a139 a5be
000001e0: 3d43 0ebe 6e6f 623e a4fc 33be 9bff aa3d
000001f0: cdd5 40bd 1cbb 9a3d c132 ccbd 14d8 723e

layer_in.bias f4 [32]
-0.40310416 -0.6057067 -0.41641885 0.5085725 -0.2807218 -0.40842086 -0.13245566 -0.23579292
0.7260467 -0.2881579 -0.5534399 0.0795589 -0.05762213 0.0062702415 0.21271084 -0.473866
0.7185537 0.09985141 0.484922 -0.1510767 -0.41153556 -0.28752476 0.4135339 -0.28101745
0.19720604 0.030931808 -0.5532029 -0.4804392 0.26004115 0.37377766 0.18646625 0.044449005
00000000: ab63 cebe 980f 1bbf da34 d5be cf31 023f
00000010: c5ba 8fbe 8a1c d1be 75a2 07be b373 71be
00000020: 32de 393f 6f89 93be 3dae 0dbf c7ef a23d
00000030: 2f05 6cbd 9976 cd3b dfd0 593e 909e f2be
00000040: 23f3 373f e57e cc3d b247 f83e dab3 1abe
00000050: cab4 d2be 7236 93be b7ba d33e 85e1 8fbe
00000060: 61f0 493e b464 fd3c b59e 0dbf 20fc f5be
00000070: 1d24 853e c95f bf3e 02f1 3e3e 2910 363d

layer_out.weight f4 [2, 32]
-0.12617129 0.18266335 -0.31905907 0.17074631 -0.1543964 -0.28884265 -0.11074337 -0.24463011
0.16944943 0.28333405 0.09125468 -0.027795855 0.094840035 -0.01159937 -0.14730754 -0.06627656
0.08930508 -0.19717088 0.24216908 0.028763302 -0.30156913 0.19733348 0.032905024 0.21396191
0.20008758 -0.24169992 -0.051955886 0.23519054 0.13403489 -0.11038813 0.22260767 0.1225873
-0.3267401 0.06650962 0.13586356 0.090757005 -0.094661 0.21694621 0.22479452 0.013417864
-0.17269075 -0.19764347 0.2997114 -0.035095815 -0.20431991 -0.3666637 0.08385907 0.29349735
0.067616805 -0.32454884 0.2811522 -0.20607992 0.14547554 0.26669112 0.047524355 -0.48914236
-0.13177761 0.05268437 -0.16232334 -0.062513724 0.13366996 -0.13807866 -0.22470045 0.13532974
00000000: 0c33 01be 1a0c 3b3e b65b a3be 1fd8 2e3e
00000010: 171a 1ebe 2fe3 93be 6ccd e2bd 5180 7abe
00000020: 2784 2d3e 2911 913e bce3 ba3d 22b4 e3bc
00000030: 7e3b c23d 490b 3ebc cad7 16be 01bc 87bd
00000040: 95e5 b63d 2ae7 49be 2cfb 773e 04a1 eb3c
00000050: 4567 9abe ca11 4a3e 6bc7 063d d518 5b3e
00000060: c2e3 4c3e 2f80 77be b2cf 54bd cad5 703e
00000070: 7140 093e 2c13 e2bd 44f3 633e 0d0f fb3d
00000080: 7a4a a7be 3236 883d d11f 0b3e cfde b93d
00000090: a0dd c1bd 2627 5e3e 8930 663e 9ad6 5b3c
000000a0: d8d5 30be 0d63 4abe c673 993e a1c0 0fbd
000000b0: 3d39 51be 58bb bbbe 4ebe ab3d 4945 963e
000000c0: ae7a 8a3d 442b a6be 2ef3 8f3e 9d06 53be
000000d0: 8af7 143e bd8b 883e e6a8 423d de70 fabe
000000e0: b6f0 06be 91cb 573d 1738 26be 3207 80bd
000000f0: c7e0 083e 7e64 0dbe e017 66be e193 0a3e

layer_out.bias f4 [2]
-0.02776653 -0.10685872
00000000: a276 e3bc bfd8 dabd

middle_layers.0.weight f4 [32, 32]
0.060531843 -0.117786184 -0.11284645 -0.1788101 0.08110883 0.009761905 0.17511794 0.18634737
0.49253464 -0.18243605 -0.17270485 0.15375078 0.15396094 -0.005304736 0.058419514 0.0612291
0.17383799 0.15166973 0.11489149 0.09684285 -0.08582733 0.005206485 0.17724004 -0.12268942
-0.10713157 0.23383524 -0.086870916 -0.33391333 0.104820155 0.31260672 0.14834149 -0.20760806
-0.015859362 -0.026752073 0.30758026 0.20974503 -0.08067653 0.06891907 0.01432692 0.21841812
-0.19048046 0.104911864 0.29938388 0.060218137 -0.07520394 -0.14436948 -0.19609438 0.010500447
-0.037556846 -0.054068957 -0.17828454 -0.12043941 0.04866141 0.21327867 0.09433983 -0.15583134
-0.10078953 0.3359082 -0.035202246 0.054589737 0.061034713 -0.112817936 -0.11654031 -0.13731427
0.11630885 0.076000616 -0.41030398 -0.30921754 -0.043061033 0.015938701 0.11417846 -0.2135188
0.34256792 -0.12250914 -0.3349115 -0.248274 0.14283276 -0.022653239 -0.052422013 0.034561172
0.009108916 0.21098512 0.2077685 0.07621797 0.07755592 -0.18797328 -0.116355255 0.03372178
0.012991079 -0.27188763 -0.0069628013 0.021432564 0.052047357 0.035962686 -0.08488224 0.14658836
-0.18691486 -0.09164851 -0.02064316 -0.37672618 0.15336168 0.25834733 -0.028806133 0.0032699786
-0.25050637 0.1333141 0.27175543 0.024348037 0.042037286 0.1825378 -0.034145854 0.11940018
-0.16479656 0.15369327 -0.116010845 0.21540105 0.09322153 -0.05578997 -0.027120398 0.095672324
-0.12622772 -0.023860682 0.30714405 -0.061049487 -0.113849156 -0.15625982 -0.0045395764 -0.28476846
0.043855842 -0.14211543 -0.048279334 0.2103336 0.122064054 0.18255217 -0.09340772 0.25722903
0.08440392 0.11978456 -0.117652304 0.19621126 0.08450146 0.07556978 -0.04822293 0.028519817
0.108800925 0.10780907 0.18113914 0.028237598 -0.071826026 -0.063475154 -0.15972674 0.021772023
0.075746514 0.17097963 -0.20738433 -0.096686825 0.030396532 0.13598628 0.048218146 0.16045362
-0.115757614 -0.24542016 -0.02996565 0.1603089 0.121280074 -0.16240083 0.12855284 -0.042349506
0.4531107 0.13509095 -0.35049394 0.06591024 -0.08487384 -0.15323132 -0.11741597 -0.17798014
0.1424527 0.13519897 -0.040746238 -0.14732353 -0.07793304 -0.011053912 0.20105527 0.19330475
-0.00058544416 -0.164187 -0.22061305 0.048637405 -0.0129483035 -0.027867261 -0.041026007 0.15069246
-0.002142634 0.16669284 -0.24735467 -0.4411662 -0.040404554 0.020463709 0.072018236 0.0077437623
-0.144784 0.09190356 0.035529397 -0.2261082 -0.025950292 -0.14189218 0.006561884 -0.12280306
-0.009127963 0.37549853 -0.040391818 0.22489123 0.043239962 0.11946648 0.051662892 0.24955644
-0.032504797 -0.43196467 0.25500345 -0.033276163 0.0886357 0.0425446 -0.19336195 -0.17055511
0.09395504 -0.078461155 -0.15387152 0.26632822 -0.16758883 -0.14141314 0.18800035 -0.025291868
0.41701606 -0.020005843 -0.2372658 0.18695593 0.07140065 0.09944324 -0.049735874 0.14617243
0.017341524 -0.11502133 0.031170772 -0.16274318 -0.18686685 0.21701577 0.1287867 0.02989622
0.11706457 0.1251917 -0.41088068 0.011749401 -0.014639133 0.073265895 0.11074962 0.031488355
00000000: 3df0 773d e239 f1bd 0a1c e7bd ff19 37be
00000010: 631c a63d 66f0 1f3c 1e52 333e d8d1 3e3e
00000020: 802d fc3e 84d0 3abe 8ad9 30be d870 1d3e
00000030: f0a7 1d3e 5ad3 adbb 4d49 6f3d 5dcb 7a3d
00000040: 9602 323e 4f4f 1b3e 3b4c eb3d 8b55 c63d
00000050: 3dc6 afbd 299b aa3b 6a7e 353e 9744 fbbd
00000060: cc67 dbbd 8172 6f3e 61e9 b1bd b0f6 aabe
00000070: f3ab d63d fd0d a03e d5e6 173e 3597 54be
00000080: 7eeb 81bc 2a27 dbbc 297b 9d3e 67c7 563e
00000090: bd39 a5bd 7125 8d3d 75bb 6a3c 00a9 5f3e
000000a0: 4f0d 43be 08dc d63d d848 993e 4ba7 763d
000000b0: 8604 9abd 98d5 13be f7cc 48be 110a 2c3c
000000c0: 35d5 19bd 6977 5dbd 3990 36be f0a8 f6bd
000000d0: 3051 473d b965 5a3e 3e35 c13d 4092 1fbe
000000e0: be6a cebd 29fc ab3e 3b30 10bd 7d99 5f3d
000000f0: 89ff 793d 170d e7bd b0ac eebd 1d9c 0cbe
00000100: 5633 ee3d 36a6 9b3d 5d13 d2be c351 9ebe
00000110: c460 30bd e191 823c 65d6 e93d aca4 5abe
00000120: 1065 af3e 12e6 fabd 8579 abbe 8a3b 7ebe
00000130: c042 123e 4993 b9bc 77b8 56bd 0490 0d3d
00000140: 903d 153c 7c0c 583e 44c1 543e 2b18 9c3d
00000150: a3d5 9e3d 117c 40be aa4b eebd d91f 0a3d
00000160: 89d8 543c db34 8bbe 3628 e4bb 5893 af3c
00000170: 9c2f 553d 9c4d 133d bdd6 adbd 421b 163e
00000180: 9c66 3fbe 37b2 bbbd d81b a9bc 41e2 c0be
00000190: d80a 1d3e 1a46 843e d7fa ebbc 234d 563b
000001a0: 5f42 80be 7e83 083e 8723 8b3e 8975 c73c
000001b0: 4a2f 2c3d 30eb 3a3e 86dc 0bbd 1588 f43d
000001c0: 6ec0 28be c561 1d3e 1897 edbd 1892 5c3e
000001d0: eeea be3d 0684 64bd 992b debc daef c33d
000001e0: d741 01be 7a77 c3bc fc41 9d3e 070f 7abd
000001f0: bf29 e9bd 9302 20be bac0 94bb 2ccd 91be
00000200: 2fa2 333d b586 11be 8dc0 45bd b161 573e
00000210: b8fc f93d f5ee 3a3e 8c4c bfbd 86b3 833e
00000220: f6db ac3d 9b51 f53d b1f3 f0bd 9beb 483e
00000230: 1a0f ad3d 54c4 9a3d 6885 45bd 64a2 e93c
00000240: 05d3 de3d 00cb dc3d 8a7c 393e 8952 e73c
00000250: 8619 93bd 43ff 81bd 688f 23be 3e5b b23c
00000260: fd20 9b3d 4915 2f3e 8f5c 54be be03 c6bd
00000270: 2602 f93c fd3f 0b3e 6480 453d f44d 243e
00000280: 5412 edbd 6c4f 7bbe 867a f5bc 0428 243e
00000290: b061 f83d 674c 26be 5ba3 033e ad76 2dbd
000002a0: 20fe e73e 4855 0a3e f173 b3be f3fb 863d
000002b0: 56d2 adbd ace8 1cbe c977 f0bd 6d40 36be
000002c0: 1fdf 113e 9971 0a3e 87e5 26bd fbdb 16be
000002d0: 5c9b 9fbd 781b 35bc 6fe1 4d3e aef1 453e
000002e0: 7e78 19ba a320 28be 63e8 61be 0438 473d
000002f0: 1f25 54bc e249 e4bc e30a 28bd 204f 1a3e
00000300: 6f6b 0cbb 87b1 2a3e 8b4a 7dbe 89e0 e1be
00000310: 3f7f 25bd 82a3 a73c 4c7e 933d 63bf fd3b
00000320: 4242 14be ef37 bc3d 4687 113d e888 67be
00000330: b595 d4bc 2f4c 11be 1305 d73b 2c80 fbbd
00000340: 748d 15bc 5841 c03e e471 25bd e349 663e
00000350: 631c 313d d8aa f43d 789c 533d b98b 7f3e
00000360: c023 05bd 792a ddbe d08f 823e 964c 08bd
00000370: a286 b53d 3f43 2e3d ad00 46be 00a6 2ebe
00000380: 806b c03d 3eb0 a0bd 7f90 1dbe 2c5c 883e
00000390: 689c 2bbe 9bce 10be 2a83 403e e430 cfbc
000003a0: 2183 d53e 4be3 a3bc cef5 72be 6071 3f3e
000003b0: 813a 923d e6a8 cb3d d8b7 4bbd 3aae 153e
000003c0: d00f 8e3c 4e90 ebbd d959 ff3c 26a6 26be
000003d0: 065a 3fbe 6239 5e3e a9e0 033e ebe8 f43c
000003e0: 8dbf ef3d 4132 003e f45e d2be 8f80 403c
000003f0: f9d8 6fbc 6e0c 963d b2d0 e23d eff9 003d

middle_layers.0.bias f4 [32]
0.011239322 0.016360873 0.14512399 0.027129194 0.059651043 0.07515932 -0.08856656 -0.063475154
0.21434678 -0.020554418 -0.08285901 0.19274566 -0.1388035 0.02378353 0.18656877 -0.123699196
0.07023748 -0.015370947 -0.18007167 0.04698215 0.08704509 0.0026552055 0.03068714 0.029746188
-0.035918392 -0.01874704 0.043530427 -0.06557914 0.1049732 -0.186855 -0.060577 -0.13081685
00000000: 2225 383c 3d07 863c 629b 143e 0b3e de3c
00000010: a754 743d 21ed 993d 6262 b5bd 43ff 81bd
00000020: b97d 5b3e bd61 a8bc fcb1 a9bd 1e5f 453e
00000030: 8122 0ebe add5 c23c e20b 3f3e 0156 fdbd
00000040: abd8 8f3d 6dd6 7bbc b564 38be 5b70 403d
00000050: b244 b23d f502 2e3b 9963 fb3c 47ae f33c
00000060: 2a1f 13bd 6493 99bc f64c 323d 5b4e 86bd
00000070: 30fc d63d eb56 3fbe 971f 78bd daf4 05be

middle_layers.1.weight f4 [32, 32]
-0.06981229 0.021103144 -0.1756588 -0.005118926 0.043874305 0.12523265 -0.112613976 -0.01629053
-0.17445558 -0.01591638 -0.12584646 0.042654976 -0.00094626524 0.008238756 -0.12881243 0.17917168
0.039795447 -0.08248707 0.040267553 0.11703587 0.19057122 0.019976532 0.021032967 -0.00060248724
-0.12019185 -0.18388692 0.053930998 -0.11738998 0.0438786 0.11862672 -0.020959029 -0.0520006
0.037849315 0.22000358 -0.13710468 0.054276753 -0.13984542 -0.028789112 -0.072362594 -0.16221023
-0.093302496 -0.20496564 -0.13360317 -0.1867019 0.12574846 -0.025054127 0.01582341 0.1985047
-0.069704875 -0.049248867 -0.14415544 0.15364152 0.1807057 0.08777162 0.19165197 0.03430404
-0.1450475 -0.064389914 0.18016265 -0.2831914 0.26254052 -0.06451438 0.056184676 -0.020813856
0.14824276 -0.12806179 0.08218815 0.4476212 -0.25583124 -0.44617176 0.15354764 -0.3165674
-0.042486895 -0.08320308 0.0014381337 0.23956382 -0.054451253 -0.07353078 -0.011042651 -0.07880363
-0.10849813 0.34055272 0.09058908 0.054017473 0.20699331 -0.24139112 -0.103483416 -0.36330742
-0.077826284 0.106985055 -0.0521467 -0.28850976 -0.19489455 0.3997128 -0.35223946 0.0955651
0.023080213 -0.03409454 0.15300545 -0.05028782 0.06400708 -0.09716951 -0.32044685 0.105442174
-0.03160661 -0.019543655 0.061724115 -0.15986523 0.33133626 -0.028416086 -0.20267333 0.10193639
-0.18106633 -0.21724026 -0.13758452 -0.17713399 0.16685386 -0.08758788 -0.12216225 -0.1719018
-0.20944656 -0.12223441 0.06119102 0.18834873 -0.03635728 0.20197473 0.12169123 -0.18700098
-0.33675885 0.20567542 0.21955536 -0.21849468 -0.06584176 0.21194941 0.17271878 -0.2571435
-0.3394836 -0.25496408 -0.097711444 0.021775084 0.4324853 -0.16921835 0.017198604 -0.008017537
0.29216987 -0.36943325 0.10712285 0.24017732 -0.091522634 0.10225184 0.27189583 0.3498951
0.01487577 0.17002538 -0.12359667 0.13125385 0.16156682 -0.028067099 0.070697196 -0.16789858
0.44725394 -0.36126432 -0.091651656 -0.12091859 0.60807365 0.08841091 -0.21340273 -0.10453042
0.1403771 0.17283593 -0.2786927 0.19787653 -0.076257974 -0.05264726 0.3736655 -0.35221043
-0.32249978 0.3733329 -0.3063387 -0.5642824 0.20383824 0.046155233 0.009950364 0.2663756
0.3047707 -0.4572897 -0.17938985 0.45655817 -0.28616002 -0.30485648 -0.2682079 -0.12785053
-0.24979998 -0.19368467 0.26639655 -0.18154718 0.057685055 0.086168535 -0.0072451434 0.0064060986
0.48826143 -0.19166455 0.11542323 0.15797214 -0.29817283 0.053052656 0.03834362 -0.15597099
-0.07961571 0.046243504 0.0036443924 -0.07111829 -0.123931356 -0.10584426 0.12120258 0.10092072
0.02197942 0.27009827 0.124900535 -0.07040256 -0.13429703 -0.2208063 -0.08106232 -0.112163365
-0.061763793 0.012629534 -0.19932435 0.054298297 0.12710696 0.04988238 -0.17207429 0.19078366
0.07759763 0.19157818 -0.102722585 -0.021540366 0.19177149 -0.06358854 -0.1266607 0.12562853
-0.10029464 0.13203469 0.16363744 0.051938143 0.30953532 0.10988617 -0.20978141 -0.004061981
0.09388084 0.1298838 0.03387062 0.11926381 0.046951428 -0.12841606 0.08121641 -0.03533039
00000000: bff9 8ebd 80e0 ac3c e7df 33be aabc a7bb
00000010: 8bb5 333d fd3c 003e 28a2 e6bd b873 85bc
00000020: 7ca4 32be 1163 82bc e5dd 00be fcb6 2e3d
00000030: c90e 78ba d9fb 063c 68e7 03be c878 373e
00000040: 8d00 233d fbee a8bd 97ef 243d 81b0 ef3d
00000050: 1a25 433e d3a5 a33c 544d ac3c 3cf0 1dba
00000060: 2527 f6bd da4c 3cbe c0e6 5c3d 286a f0bd
00000070: 0cba 333d 91f2 f23d 45b2 abbc 95fe 54bd
00000080: e207 1b3d 9e48 613e 2b65 0cbe 4d51 5e3d
00000090: a333 0fbe 25d7 ebbc d732 94bd 701a 26be
000000a0: 6115 bfbd 83e2 51be 45cf 08be c82e 3fbe
000000b0: 34c4 003e 503e cdbc 19a0 813c d144 4b3e
000000c0: 6ec1 8ebd 2eb9 49bd 7c9d 13be 3454 1d3e
000000d0: ea0a 393e 9bc1 b33d 6a40 443e 6582 0c3d
000000e0: 5587 14be dcde 83bd 8f7c 383e 77fe 90be
000000f0: b66b 863e 1e20 84bd e721 663d d281 aabc
00000100: f3cc 173e a122 03be 4352 a83d 9b2e e53e
00000110: 50fc 82be a070 e4be 983b 1d3e 1f15 a2be
00000120: bd06 2ebd 6066 aabd c27f bc3a 3850 753e
00000130: 4708 5fbd 4e97 96bd 3cec 34bc cc63 a1bd
00000140: 4534 debd ed5c ae3e c486 b93d 6d41 5d3d
00000150: 0ef6 533e 3c2f 77be 1def d3bd 6e03 babe
00000160: 6363 9fbd fb1a db3d c797 55bd 8db7 93be
00000170: 7092 47be 28a7 cc3e bb58 b4be a3b7 c33d
00000180: b712 bd3c b7a6 0bbd 76ad 1c3e 9afa 4dbd
00000190: 2516 833d cf00 c7bd 9c11 a4be 11f2 d73d
000001a0: ef75 01bd 041a a0bc 6dd2 7c3d b6b3 23be
000001b0: e8a4 a93e dac8 e8bc 9989 4fbe 07c4 d03d
000001c0: 7469 39be 3b74 5ebe f5e2 0cbe 9d62 35be
000001d0: bddb 2a3e 4661 b3bd 3430 fabd 0707 30be
000001e0: 2979 56be 0956 fabd 6fa3 7a3d 7dde 403e
000001f0: 5feb 14bd 77d2 4e3e 4039 f93d 2f7d 3fbe
00000200: a86b acbe 949c 523e 1fd3 603e 12bd 5fbe
00000210: 0bd8 86bd 4409 593e 31dd 303e 50a8 83be
00000220: cbd0 adbe a78a 82be f01c c8bd a961 b23c
00000230: b76e dd3e 9347 2dbe 16e4 8c3c fd5b 03bc
00000240: 4a97 953e 5b26 bdbe 3a63 db3d 0bf1 753e
00000250: 3870 bbbd 6a69 d13d ee35 8b3e 7325 b33e
00000260: 80b9 733c 221b 2e3e 4020 fdbd 6967 063e
00000270: c671 253e f9ec e5bc b1c9 903d 9bed 2bbe
00000280: 78fe e43e a3f7 b8be ddb3 bbbd 2aa4 f7bd
00000290: b7aa 1b3f c710 b53d 3f86 5abe 0b14 d6bd
000002a0: 04bf 0f3e e7fb 303e cfb0 8ebe 25a0 4a3e
000002b0: 242d 9cbd a7a4 57bd 1651 bf3e ed54 b4be
000002c0: b11e a5be 7d25 bf3e 6dd8 9cbe d074 10bf
000002d0: f9ba 503e 450d 3d3d da06 233c 6262 883e
000002e0: e80a 9c3e e021 eabe f9b1 37be fec1 e93e
000002f0: 9183 92be 2616 9cbe 8c52 89be 40eb 02be
00000300: 91cb 7fbe 4655 46be 2165 883e 81e7 39be
00000310: 2a47 6c3d 2179 b03d ab68 edbb 40ea d13b
00000320: 67fd f93e b643 44be 0463 ec3d 73c3 213e
00000330: 1caa 98be be4d 593d 330e 1d3d dcb6 1fbe
00000340: 900d a3bd d469 3d3d c2d6 6e3b 77a6 91bd
00000350: b9cf fdbd e0c4 d8bd 0f39 f83d 86af ce3d
00000360: 2f0e b43c 524a 8a3e dacb ff3d 382f 90bd
00000370: 2985 09be 0c1b 62be 0004 a6bd e8b5 e5bd
00000380: 08fc 7cbd 1bec 4e3c af1b 4cbe e467 5e3d
00000390: 5428 023e 7751 4c3d 3e34 30be cb5c 433e
000003a0: 82eb 9e3d 122d 443e 3860 d2bd 6c75 b0bc
000003b0: bf5f 443e b53a 82bd 58b3 01be c4a4 003e
000003c0: 4767 cdbd 1a34 073e 9390 273e 17bd 543d
000003d0: 6a7b 9e3e 000c e13d f0d0 56be 5e1a 85bb
000003e0: 9944 c03d 4200 053e ebbb 0a3d 9640 f43d
000003f0: 2450 403d 807f 03be ca54 a63d 99b6 10bd

middle_layers.1.bias f4 [32]
0.019474745 0.06794029 0.1616736 0.09513188 -0.1318369 0.10071956 0.00012370918 0.17516616
0.16094737 -0.058879275 -0.047076862 -0.07062622 0.14758655 0.0335809 0.25802872 0.05671262
-0.027381228 -0.03483906 0.0013303489 -0.09946515 0.027994001 -0.14583007 0.055323165 -0.18197604
-0.04454304 0.028596608 0.05817563 -0.19739993 -0.02617821 -0.03742545 -0.09562905 -0.011964677
00000000: 8089 9f3c 4724 8b3d c48d 253e 81d4 c23d
00000010: 4100 07be 0f46 ce3d eeb7 0139 c25e 333e
00000020: 63cf 243e 652b 71bd abd3 40bd 7ba4 90bd
00000030: ee20 173e 208c 093d 571c 843e 7e4b 683d
00000040: 994e e0bc 67b3 0ebd 1a5f ae3a 62b4 cbbd
00000050: ad53 e53c 7a54 15be 8b9a 623d ed57 3abe
00000060: c372 36bd 6f43 ea3c 9249 6e3d 3523 4abe
00000070: af73 d6bc 6e4b 19bd 2ad9 c3bd 7e07 44bc

middle_layers.2.weight f4 [32, 32]
-0.07808188 0.15364952 0.20996211 0.06579042 -0.1426967 -0.05245849 -0.14159238 -0.0006715502
-0.15957588 0.21161662 0.108409055 -0.03870981 0.078889355 0.14974977 0.15902519 0.09760996
0.14501522 0.06957218 0.003501993 -0.018463915 -0.09725978 -0.0812786 -0.16556112 0.08223193
0.107718386 0.17597707 0.31425914 -0.16856515 0.05624194 -0.121324345 -0.059985477 0.11676623
-0.14228812 -0.13510044 -0.1788766 -0.109329015 0.14498672 0.24516068 -0.009498174 0.010362164
0.11291189 0.058563206 0.2618556 0.0689133 0.031197146 -0.075800434 -0.22106193 -0.034178704
-0.044981617 0.1406031 0.1024137 0.05779238 0.06178137 0.18743753 0.07397135 -0.17133068
0.004585357 -0.14640643 -0.07597815 -0.07954558 -0.08874432 -0.13566947 -0.02973542 0.0047465987
-0.09069114 0.017577851 0.059423525 0.024351602 0.036485657 -0.13418967 0.22378723 0.11603084
0.13224824 0.09897993 0.11591089 -0.06326397 0.17307465 0.031902056 -0.028470587 -0.03719199
-0.05107602 -0.15967664 -0.050368313 0.02071719 0.0556379 -0.09429802 0.12880276 0.18600751
0.15294585 -0.064373195 -0.40474612 0.023103654 -0.07794014 0.08256003 0.20081061 0.12841426
0.13549322 -0.15130335 0.3195038 0.04340234 -0.20153977 -0.33963615 -0.096323214 0.27663463
-0.21724671 0.05032983 -0.135805 0.20726494 -0.14031698 -0.06558542 0.36751455 0.36825663
0.25290042 0.36075434 -0.043112714 -0.0016144746 0.036498997 -0.028592115 0.20479083 -0.16409744
-0.05679078 0.18271367 0.07683315 -0.069551736 -0.16600949 -0.0037489184 0.071810365 -0.11525123
0.040835667 0.0047841095 -0.10476272 0.00021801236 -0.12176424 0.42046285 -0.31447047 -0.17525119
0.043081604 0.045949385 -0.11239946 -0.19409375 0.11607804 0.01208484 0.057264015 -0.23757039
-0.15983553 0.02770451 -0.14591408 0.12569535 0.028075585 0.15768047 0.055492688 -0.049287327
0.015024932 0.011379278 0.013299538 0.12147458 0.05089856 -0.22013351 -0.12756279 0.22039558
-0.1017976 0.1499083 -0.11316344 0.19374318 -0.12035962 0.26083848 -0.093769394 0.0834689
0.10312775 0.12426378 0.03497566 -0.18866624 -0.09300405 0.09408655 -0.22381048 -0.2752314
0.01231302 -0.08359277 0.1416033 -0.1114785 0.05944941 0.15308599 -0.115483224 0.12676197
0.070843495 0.09008942 0.01176268 0.1323096 -0.013223159 -0.21708754 -0.14296088 -0.15912934
-0.112389565 0.0030338552 0.25587806 -0.02961325 -0.054390658 -0.34935385 0.11529436 0.1851031
-0.066147186 -0.0058290223 -0.061283145 0.033569522 -0.04678384 -0.016530734 -0.032924876 0.12937342
0.09772645 0.13263129 0.006218312 -0.04816591 0.033976395 -0.16556694 0.10710341 -0.1756751
-0.14432685 -0.030837417 0.03697463 0.033838455 -0.12275967 0.06247628 0.10577073 0.115658335
0.10861223 0.02929861 -0.1335165 -0.2157536 0.2516507 0.17284144 0.1772905 -0.017052334
0.20924273 -0.17998189 -0.055831343 0.20211616 0.2922432 -0.16124815 -0.08935979 0.055897113
0.014724508 0.072768494 -0.014384444 0.21949391 -0.020988366 -0.18168207 -0.16621162 -0.14623584
0.06187172 -0.18340278 -0.25203735 0.21588199 -0.0033016147 0.17480712 0.046697926 0.041452132
00000000: 65e9 9fbd 4d56 1d3e 4f00 573e 21bd 863d
00000010: 151f 12be b7de 56bd 98fd 10be f90a 30ba
00000020: dc67 23be 07b2 583e 9105 de3d 2d8e 1ebd
00000030: be90 a13d 0158 193e 80d7 223e bbe7 c73d
00000040: df7e 143e dc7b 8e3d b181 653b a341 97bc
00000050: 2330 c7bd 6575 a6bd db88 29be 3769 a83d
00000060: 759b dc3d 5533 343e 93e6 a03e 589c 2cbe
00000070: f35d 663d e678 f8bd 55b3 75bd 2223 ef3d
00000080: fab3 11be c557 0abe 6d2b 37be e4e7 dfbd
00000090: 6677 143e 670b 7b3e 3b9e 1bbc 11c6 293c
000000a0: 593e e73d f9df 6f3d f011 863e 6b22 8d3d
000000b0: 2891 ff3c 423d 9bbd 0f5e 62be f8fe 0bbd
000000c0: a53e 38bd 42fa 0f3e 46be d13d b4b7 6c3d
000000d0: 760e 7d3d a0ef 3f3e 4b7e 973d 4f71 2fbe
000000e0: c340 963b 91eb 15be 6f9a 9bbd cbe8 a2bd
000000f0: 95bf b5bd f0ec 0abe b297 f3bc 5b89 9b3b
00000100: 47bc b9bd 6dff 8f3c 1566 733d 037d c73c
00000110: fc71 153d 0469 09be 7b28 653e 94a1 ed3d
00000120: 156c 073e fdb5 ca3d b062 ed3d 8a90 81bd
00000130: 7b3a 313e bbab 023d 263b e9bc a156 18bd
00000140: 1735 51bd 4682 23be 014f 4ebd 19b7 a93c
00000150: 91e4 633d 521f c1bd dfe4 033e c178 3e3e
00000160: d69d 1c3e 18d6 83bd e23a cfbe e043 bd3c
00000170: 159f 9fbd 3c15 a93d 4ca1 4d3e 077f 033e
00000180: bcbe 0a3e 44ef 1abe 0196 a33e a7c6 313d
00000190: 7160 4ebe cae4 adbe 1b45 c5bd 0ea3 8d3e
000001a0: ec75 5ebe a726 4e3d 7710 0bbe 433d 543e
000001b0: 41af 0fbe a651 86bd de2a bc3e 228c bc3e
000001c0: 2a7c 813e cbb4 b83e f596 30bd c79c d3ba
000001d0: f97f 153d 033a eabc b0b4 513e 2909 28be
000001e0: 739d 68bd 4b19 3b3e b35a 9d3d 2471 8ebd
000001f0: 64fe 29be 6ab0 75bb 5011 933d d608 ecbd
00000200: 4d43 273d 05c4 9c3b d68d d6bd 3f9a 6439
00000210: 885f f9bd e846 d73e 4602 a1be 0c75 33be
00000220: 5676 303d 6c35 3c3d b031 e6bd 83c0 46be
00000230: 53ba ed3d 7eff 453c ac8d 6a3d a745 73be
00000240: edab 23be 92f4 e23c 806a 15be 48b6 003e
00000250: c5fe e53c fd76 213e 4d4c 633d 82e1 49bd
00000260: 222b 763c 2770 3a3c 4ee6 593c aac7 f83d
00000270: 027b 503d ae6a 61be d29f 02be 61af 613e
00000280: 437b d0bd 9081 193e 3cc2 e7bd 9d64 463e
00000290: 1b7f f6bd 9f8c 853e 2b0a c0bd bef1 aa3d
000002a0: a434 d33d 027e fe3d a342 0f3d b931 41be
000002b0: e878 bebd 73b0 c03d 932e 65be 21eb 8cbe
000002c0: 8dbc 493c b032 abbd 7500 113e d74e e4bd
000002d0: 3981 733d 93c2 1c3e 7882 ecbd e4cd 013e
000002e0: 6516 913d cd80 b83d 41b8 403c 2b7c 073e
000002f0: f3a5 58bc 324c 5ebe 5664 12be cdf2 22be
00000300: 802c e6bd a5d3 463b 7302 833e 7d97 f2bc
00000310: bdc8 5ebd 82de b2be 731f ec3d ab8b 3d3e
00000320: 2d78 87bd 6201 bfbb 0904 7bbd 3280 093d
00000330: 69a0 3fbd 766b 87bc 3cdc 06bd 777a 043e
00000340: ce24 c83d 7fd0 073e fbc2 cb3b 9e49 45bd
00000350: d52a 0b3d 618a 29be 0859 db3d 2ce4 33be
00000360: 6bca 13be c09e fcbc b672 173d 319a 0a3d
00000370: 6c69 fbbd 21e7 7f3d 539e d83d 47de ec3d
00000380: 1770 de3d a303 f03c 8db8 08be 83ee 5cbe
00000390: 5cd8 803e 59fd 303e a48b 353e 56b1 8bbc
000003a0: ba43 563e 2c4d 38be 68af 64bd 8af7 4e3e
000003b0: e7a0 953e 3c1e 25be 4402 b7bd 5ff4 643d
000003c0: 103f 713c a607 953d bbac 6bbc 03c3 603e
000003d0: cbef abbc dd0a 3abe 6133 2abe d9be 15be
000003e0: 336d 7d3d f0cd 3bbe 0a0b 81be 2b10 5d3e
000003f0: e75f 58bb a300 333e 5346 3f3d b6c9 293d

middle_layers.2.bias f4 [32]
0.17255023 -0.14269729 -0.0072498713 0.039576467 -0.13585337 0.13810265 0.18995988 0.06643899
0.03294667 0.039550405 -0.04290048 -0.07253703 -0.043367732 0.067955524 -0.15756406 0.1416809
0.1210003 -0.020683037 0.13868414 0.18792821 -0.06354337 -0.040705193 0.25181362 -0.12063545
0.14360803 -0.18206634 0.26573563 -0.026314333 -0.18530594 0.14020742 -0.10522255 0.07010797
00000000: 02b1 303e 3d1f 12be 5490 edbb ef1a 223d
00000010: 251d 0bbe c86a 0d3e d884 423e 2a11 883d
00000020: 16f3 063d 9bff 213d 6ab8 2fbd 4b8e 94bd
00000030: 5da2 31bd 442c 8b3d 7958 21be cc14 113e
00000040: 01cf f73d 796f a9bc 3703 0e3e 4170 403e
00000050: 0723 82bd 7dba 26bd b7ed 803e b80f f7bd
00000060: fc0d 133e 996f 3abe 800e 883e 2891 d7bc
00000070: d7c0 3dbe 8992 0f3e ec7e d7bd c494 8f3d

middle_layers.3.weight f4 [32, 32]
0.0042747743 0.05556779 -0.17686523 0.056308743 0.14669819 0.008688708 -0.0523751 0.0019826978
0.18760785 0.009084135 0.038754303 0.03360557 0.1365611 -0.07412318 -0.06267811 -0.102021135
-0.031113103 -0.0785238 0.24749352 0.07187677 0.118462965 0.18677308 0.034292653 0.034230705
-0.07809646 0.11722871 -0.10616035 0.0021307284 -0.037783213 -0.120025866 -0.1416798 0.13944222
0.054080825 0.03460491 -0.06744529 0.13033015 0.045031153 -0.20279492 -0.1233934 0.14422338
0.013742155 0.053606357 0.074503854 0.15110214 -0.38236368 -0.04334376 -0.004650333 0.07430864
-0.11347831 -0.13963391 0.15570045 0.15313691 0.1279396 -0.007816371 -0.03738637 -0.0879543
0.28576314 -0.07671328 0.11131903 -0.008980194 -0.24289383 0.2080981 -0.15832718 -0.22022623
-0.09139269 -0.16949296 -0.0043808185 0.59526384 -0.24643181 -0.20928212 0.21884923 -0.07926387
-0.12924501 0.11078022 -0.12499651 -0.18482865 0.36740857 0.38611704 0.30910987 0.13587688
0.12756664 0.01943664 0.009093895 -0.28077823 -0.26523495 0.05581253 -0.056998987 -0.02403129
-0.06722919 0.071766175 -0.03317777 -0.2874006 0.23892225 -0.20893353 0.31722724 0.25433332
-0.12853502 0.069777414 0.06229108 0.045510102 -0.1284727 -0.2068222 -0.10474929 0.1827898
-0.009260636 -0.031478945 -0.17821564 0.1919244 -0.11676062 -0.08453018 -0.17534648 0.09226912
0.0397782 -0.2487041 -0.14987174 -0.0625334 -0.014125726 0.0035960919 -0.09416222 -0.08679875
0.0056973035 -0.022826897 0.15407681 -0.0977452 -0.03359355 0.14477569 -0.036568526 -0.19854474
0.13053252 0.014317604 -0.22877567 0.11795307 0.011242813 0.17352556 -0.14932719 -0.04101827
0.078841195 0.037759725 -0.06686859 -0.037471596 0.10900079 0.18438803 0.1728184 0.048293125
0.16941504 -0.14375149 0.24023373 -0.15468393 0.20704053 0.17873144 -0.12915418 -0.07777115
-0.09841032 0.012206066 -0.08253067 0.024738714 -0.068276666 -0.15399586 -0.0155156385 -0.019003224
-0.16924238 -0.105334476 -0.13595344 0.5590978 -0.1977646 -0.10964646 0.13734978 0.06483543
-0.1695708 -0.02147811 -0.27566785 -0.03846934 0.27542007 0.14790447 0.1583478 -0.04541591
0.104689054 -0.07345477 0.04418401 -0.17263982 -0.18244083 -0.02133201 0.2558124 -0.07945656
-0.17639448 -0.018555691 0.033841144 0.09164914 0.047164734 0.14047602 0.29659823 0.17710309
0.23064564 -0.1979416 -0.06654667 0.19924171 -0.1933345 -0.21029094 0.10042437 0.05111578
-0.18429163 0.027226364 -0.34730074 -0.016740201 0.21218503 0.055288546 0.1869283 0.06276652
0.0996869 0.078292035 -0.25741717 0.110416844 -0.43824974 0.06663034 0.0038269577 -0.15281948
-0.1025778 0.1404208 0.09032661 0.20194744 0.075112134 0.051104326 0.094261155 0.049650017
0.009237461 -0.14059831 0.09167373 0.05105874 -0.08402864 0.13570218 0.04344869 -0.18766738
0.076378256 -0.07388325 -0.011384907 -0.18634436 0.07906316 0.073410556 -0.08654462 0.13320135
-0.09871233 -0.07200221 0.13707878 0.066440955 0.05284224 -0.0035113264 -0.05971484 -0.15145917
-0.054754607 -0.1418508 -0.09635011 0.21289577 0.13784614 -0.23875819 0.21644333 0.3039119
00000000: 6813 8c3b 0d9b 633d 291c 35be ffa3 663d
00000010: 0d38 163e 155b 0e3c 4687 56bd 26f0 013b
00000020: 461c 403e a0d5 143c d5bc 1e3d ffa5 093d
00000030: acd6 0b3e e5cd 97bd 625d 80bd 75f0 d0bd
00000040: e8e0 febc 16d1 a0bd f16e 7d3e 2134 933d
00000050: b69c f23d 7141 3f3e 7476 0c3d 7f35 0c3d
00000060: 09f1 9fbd 9b15 f03d 996a d9bd b1a3 0b3b
00000070: 92c2 1abd 1fd0 f5bd 8214 11be f1c9 0e3e
00000080: db83 5d3d e1bd 0d3d c220 8abd 4475 053e
00000090: 9672 383d 79a9 4fbe aeb5 fcbd 4baf 133e
000000a0: c726 613c 5792 5b3d 7a95 983d 85ba 1a3e
000000b0: 2cc5 c3be 3a89 31bd d261 98bb 212f 983d
000000c0: 5167 e8bd 31fc 0ebe f06f 1f3e eccf 1c3e
000000d0: 9902 033e 3c10 00bc 7322 19bd 6221 b4bd
000000e0: 8c4f 923e da1b 9dbd 3bfb e33d aa21 13bc
000000f0: 29b9 78be ab17 553e 8520 22be fc82 61be
00000100: 172c bbbd 908f 2dbe f88c 8fbb 3663 183f
00000110: 9f58 7cbe 0d4e 56be 031a 603e 1955 a2bd
00000120: ce58 04be bde0 e23d 2cfe ffbd b943 3dbe
00000130: fa1c bc3e 22b1 c53e a643 9e3e 4f23 0b3e
00000140: d4a0 023e 9739 9f3c 8ffe 143c 2ac2 8fbe
00000150: e0cc 87be ae9b 643d c577 69bd 45dd c4bc
00000160: 75af 89bd 25fa 923d 6ae5 07bd 2c26 93be
00000170: 09a8 743e acf2 55be 9c6b a23e fa37 823e
00000180: af9e 03be 76e7 8e3d ee24 7f3d cd68 3a3d
00000190: 598e 03be 33c9 53be cc86 d6bd 402d 3b3e
000001a0: ecb9 17bc 11f0 00bd 297e 36be d487 443e
000001b0: 3120 efbd 291e adbd 078e 33be 98f7 bc3d
000001c0: 77ee 223d 4aac 7ebe fa77 19be 8311 80bd
000001d0: 976f 67bc 69ac 6b3b 1fd8 c0bd 8bc3 b1bd
000001e0: 72b0 ba3b 79ff babc 50c6 1d3e a32e c8bd
000001f0: 6499 09bd 1440 143e e1c8 15bd 504f 4bbe
00000200: 51aa 053e 6294 6a3c 2b44 6abe 6191 f13d
00000210: c733 383c afb0 313e 3ae9 18be c602 28bd
00000220: 7e77 a13d f1a9 1a3d 66f2 88bd d17b 19bd
00000230: ce3b df3d 37d0 3c3e 4ff7 303e 03cf 453d
00000240: 237b 2d3e 9733 13be d5ff 753e 7765 1ebe
00000250: 6f02 543e 6005 373e fe40 04be 7b46 9fbd
00000260: 5a8b c9bd f4fb 473c d705 a9bd d8a8 ca3c
00000270: a3d4 8bbd 17b1 1dbe 4e35 7ebc a6ac 9bbc
00000280: e04d 2dbe 9ab9 d7bd 6137 0bbe 0921 0f3f
00000290: ce82 4abe 538e e0bd 6ca5 0c3e 70c8 843d
000002a0: f8a3 2dbe ddf2 afbc 5624 8dbe 0792 1dbd
000002b0: dc03 8d3e 4574 173e ed25 223e 0906 3abd
000002c0: 3767 d63d 746f 96bd 4bfa 343d 7ec8 30be
000002d0: c5d1 3abe 78c0 aebc d8f9 823e 1fba a2bd
000002e0: c1a0 34be 1b02 98bc 039d 0a3d 8bb2 bb3d
000002f0: cf2f 413d f2d8 0f3e b9db 973e 835a 353e
00000300: 5f2e 6c3e 34b1 4abe 9f49 88bd 0506 4c3e
00000310: 7bf9 45be 8256 57be 4bab cd3d c85e 513d
00000320: f2b6 3cbe d309 df3c 67d1 b1be bf22 89bc
00000330: 0847 593e 3e76 623d 226a 3f3e bc8b 803d
00000340: a528 cc3d 9357 a03d 2fcc 83be 3a22 e23d
00000350: 4562 e0be 7d75 883d b2cd 7a3b b67c 1cbe
00000360: 4f14 d2bd 78ca 0f3e 28fd b83d 4fcb 4e3e
00000370: 64d4 993d c552 513d fe0b c13d d15d 4b3d
00000380: b858 173c 01f9 0fbe 70bf bb3d f822 513d
00000390: 3517 acbd 83f5 0a3e 41f7 313d e12b 40be
000003a0: 346c 9c3d 1a50 97bd c387 3abc 0ed1 3ebe
000003b0: deeb a13d 4658 963d 4e3e b1bd ef65 083e
000003c0: b129 cabd e575 93bd 615e 0c3e 3212 883d
000003d0: 1b71 583d 481e 66bb 8c97 74bd 1d18 1bbe
000003e0: 5e46 60bd 5641 11be 3553 c5bd 5901 5a3e
000003f0: 8a27 0d3e 077d 74be 52a3 5d3e 579a 9b3e

middle_layers.3.bias f4 [32]
-0.11868692 0.22607604 -0.15677969 0.15223365 0.06765396 -0.100360535 -0.15239972 -0.007544015
0.037936997 -0.069593556 -0.09454038 0.07293616 0.057821736 -0.20824261 -0.075250305 -0.043548964
0.0083423285 0.03285619 -0.18365777 -0.13919622 0.11394057 0.14255756 -0.00616231 -0.11719403
0.113200076 0.08632637 -0.046008587 0.03837312 0.10663838 0.08359924 -0.15911585 0.09469154
00000000: 2112 f3bd 7a80 673e db8a 20be 23e3 1b3e
00000010: 298e 8a3d d389 cdbd ac0e 1cbe c933 f7bb
00000020: d363 1b3d 1187 8ebd 639e c1bd 8e5f 953d
00000030: 7cd6 6c3d 8d3d 55be d51c 9abd 6660 32bd
00000040: 43ae 083c 3694 063d c810 3cbe 7489 0ebe
00000050: ac59 e93d 9cfa 113e 34ed c9bb 6c03 f0bd
00000060: 71d5 e73d e1cb b03d 8073 3cbd 222d 1d3d
00000070: 3965 da3d 1436 ab3d 44ef 22be a3ed c13d
